S8/Weights/model_GN.pth (torch, 157092 bytes, 27 tensors)

conv1.weight f4 [10, 3, 3, 3]
000000 86 30 f8 3d f3 40 24 3f d0 bf 13 be 10 3f a1 3e
       0.1211863 0.64161605 -0.1442864 0.31493425
000010 eb ea e7 be d0 95 21 be 8c 26 44 3e 66 e4 f6 be
       -0.45296416 -0.15779805 0.1915533 -0.4822113
000020 7f 58 17 be 8d 08 77 bc e1 b5 4e bb 31 5f 33 be
       -0.14779852 -0.015077722 -0.0031541514 -0.17516781
000030 a2 19 40 3e 49 4a 1b bf ce ea 0b be a6 47 a2 3e
       0.18759778 -0.60660225 -0.1366379 0.31695288
000040 26 f6 f9 bd c1 b4 ad bb e6 8a 5f be c7 8b 8d 3e
       -0.12205152 -0.0053010886 -0.2183033 0.27645704
000050 17 50 8b 3e 00 3a ce bd 69 42 2d bf 5d 09 2c 3e
       0.2720954 -0.10069656 -0.6767946 0.16800447
000060 ea ce 2e 3e 93 c6 ca be 06 dd 38 3e a4 39 7c 3e
       0.17071119 -0.39604625 0.18053064 0.24631363
000070 6f 33 11 3d ac 84 1f 3c 79 fe 14 3f e8 23 09 bf
       0.03544944 0.009736221 0.58200794 -0.53570414
000080 ba 48 1c 3e a0 23 9b be c7 1a 15 be b3 af 9b 3e
       0.15262118 -0.30300617 -0.14560996 0.30407485
000090 d0 23 f7 3e 25 c8 5c be 3c 9f 08 3c 3a 01 02 3f
       0.4826951 -0.21560724 0.008338746 0.5078312
0000a0 06 b4 40 bf 91 a4 68 3c 22 a2 3b be 33 2c 96 3d
       -0.75274694 0.014199392 -0.18323568 0.07332649
0000b0 3b 08 b0 3e 98 ef 00 3f 42 d9 62 be 39 75 7d be
       0.3438128 0.5036559 -0.2215319 -0.24751748
0000c0 cb 18 37 3f 80 a0 5a bf 44 b0 9c be 0a 80 71 bd
       0.71522206 -0.85401154 -0.3060323 -0.05896
0000d0 29 f0 a0 bd c6 b3 81 3d 28 4f 58 be 02 98 b3 bd
       -0.07858307 0.06333117 -0.21123946 -0.087692276
0000e0 53 c5 82 be 58 21 55 be 33 07 1c 3e 90 1d 0f 3f
       -0.2554117 -0.20813501 0.15237121 0.55904484
0000f0 22 27 9a bd 2d 08 31 3e 75 19 f3 3d 60 8e 23 3e
       -0.07526995 0.17288275 0.1187009 0.1597228
000100 e0 ff b7 3e e9 19 d5 3c 63 ad 82 3e c1 b4 67 3e
       0.35937405 0.026013331 0.2552291 0.22627546
000110 7f f1 35 3f c6 ee c6 3e a1 84 d8 3d 0d 9c 3c 3e
       0.7107162 0.38854045 0.10572172 0.18418904
000120 5a 95 1b be 4a 25 ec bd 00 d6 97 be a1 4c dc be
       -0.15193692 -0.1153055 -0.29655457 -0.43027213
000130 21 69 26 bf 0a 02 51 bd 17 59 cb 3d 5e ac 0d bf
       -0.65004164 -0.051027335 0.09929102 -0.55341136
000140 5e f2 f7 be ec 3a 0c bf 1e 32 88 be 49 ee a0 be
       -0.484271 -0.5477741 -0.26600736 -0.31431797
000150 86 f1 09 3f e3 3f ad 3e 61 18 a5 3d ad 9e 76 3c
       0.5388416 0.33837804 0.080612905 0.01505248
000160 ff b3 a9 bd e9 8c b3 3b 3c a0 03 bf 38 9c c1 be
       -0.08286285 0.0054794443 -0.51416373 -0.37814498
000170 9e 64 7e bd 71 ce 4b 3f 3a aa 28 3e f2 f4 81 3d
       -0.062107675 0.7961188 0.16471186 0.06345548
000180 a8 14 9d 3e 77 f1 93 be ee d8 d6 3d 6a fa e5 be
       0.30679822 -0.2889516 0.10490595 -0.44917613
000190 36 41 a5 be c0 5d 83 3d 03 1f 1e 3f 70 7f 55 3e
       -0.32276314 0.06414366 0.6176607 0.20849395
0001a0 84 f5 b5 3e 3d 37 4d 3e 30 37 f3 be c8 fc 18 bd
       0.35538876 0.20040603 -0.47503042 -0.037350446
0001b0 b6 e6 01 be d1 e9 60 3c 1a 79 07 3e e3 b7 08 3e
       -0.12685665 0.013727621 0.1322979 0.13351397
0001c0 66 73 64 bd 13 49 24 be 0b eb 4e be 5c 08 08 3e
       -0.055774115 -0.160435 -0.2020685 0.13284439
0001d0 a7 f2 50 be 83 0a d0 bd fb de 1c be 7f 4a 50 3e
       -0.20405065 -0.10158255 -0.15319435 0.20340918
0001e0 9d fc d1 3e 4e c8 ef bd cb aa cc be 63 14 d1 bd
       0.4101304 -0.11708127 -0.39974055 -0.102089666
0001f0 0d 57 40 3e 92 f7 ad bd bf 08 5f 3e d6 9d 04 be
       0.18783207 -0.08494486 0.2178068 -0.12950835
000200 c1 a2 ee bd 0a b8 37 3f 37 70 62 3e 7b 8f b2 bd
       -0.116521366 0.71765196 0.22113119 -0.08718773
000210 38 cd f1 3e 89 0c f4 3e 3c 59 7b 3c e2 1c 8f 3d
       0.47226882 0.47665814 0.015341099 0.06987931
000220 b7 fc 32 3f df 17 f4 3e f2 93 75 3e b5 8b 7c 3d
       0.6991686 0.47674462 0.23982218 0.061656673
000230 00 67 8f be 49 9b 45 bd fe 60 7a 3c 57 f8 71 be
       -0.2800827 -0.048243795 0.015281914 -0.2362989
000240 21 da 0d bf 4a ad fd 3e 85 ad ec 3e 50 5b 25 be
       -0.55410963 0.49546272 0.46226135 -0.16148114
000250 74 bd fa be 15 88 4b bd f7 48 c8 bd 61 1d 3c be
       -0.48972666 -0.049690325 -0.09779542 -0.18370582
000260 4b 05 d6 3d c2 37 06 bf 63 cc d8 3e 26 c8 37 3e
       0.10450228 -0.5242883 0.42343435 0.17947444
000270 e2 c0 04 bd 2b d2 e4 be 5d 49 db bd bd 41 50 be
       -0.03241051 -0.44691595 -0.10707352 -0.20337577
000280 d7 b4 2d 3e 7d c4 4d 3d cc 91 16 be e7 4c 1b bf
       0.16963516 0.050236214 -0.14704055 -0.6066422
000290 d9 63 02 be 5c 55 d7 be be 22 e9 be 04 82 c5 be
       -0.12733401 -0.42057312 -0.4553432 -0.38575757
0002a0 4d 0c f9 bd 44 1b 48 3c e3 fb 46 be ad 5a 3c be
       -0.12160549 0.012213532 -0.19432025 -0.18393965
0002b0 58 71 70 be 5d 71 47 3e 5d ed 25 3e 3a ca da 3e
       -0.23480737 0.19476838 0.16203828 0.42732412
0002c0 31 7e c3 bc 9e ee 76 be 6d 48 04 3f 90 1e 40 bc
       -0.023863884 -0.24114463 0.5167301 -0.011726037
0002d0 4b a7 50 be ed 22 bf 3d 01 fe 15 3e 1f e0 9f 3e
       -0.20376317 0.093328334 0.14647676 0.31225678
0002e0 1b 52 36 3f 27 bf 72 3e 3f bf e2 bd 61 be 37 3f
       0.71219033 0.23705731 -0.110716335 0.7177487
0002f0 1e d6 83 3d 84 71 44 3e d6 a1 bc be f1 94 96 be
       0.06437324 0.19183928 -0.3684222 -0.29410508
000300 d0 c4 57 3f b3 b7 e1 3e f2 06 62 3e aa 51 b7 3e
       0.8428469 0.44085464 0.22072962 0.35804492
000310 2e 4f 3b 3f bf b7 56 3e aa 8d 83 3e bd 52 ca be
       0.73167694 0.20968531 0.2569402 -0.3951625
000320 73 ca 18 bd be 3c 5f 3d 9e e4 d9 be 28 b3 7e bd
       -0.037302446 0.054501288 -0.42557234 -0.062182575
000330 70 40 aa be 1c ef d0 be ca 20 a0 be dd dd b9 3e
       -0.33252287 -0.40807426 -0.31275016 0.3630208
000340 b7 56 bf bd 00 15 ac 3e 6b 7d da bc ed c0 a9 be
       -0.093427114 0.33609772 -0.026671132 -0.33155003
000350 ca 65 3f be 30 54 e8 be a3 35 4e be 9b 01 25 bd
       -0.18691173 -0.4537673 -0.20137648 -0.040284734
000360 ca eb 3a bf 14 a0 d9 be 83 e4 6b 3e 2e 07 79 be
       -0.73016036 -0.42504942 0.23036389 -0.24319145
000370 41 ef 04 be 5b 17 29 3f 96 02 f9 3d 7e 7c 87 3e
       -0.12981893 0.6605126 0.12158696 0.26462168
000380 3e 71 08 3f 09 f0 6b be e4 f9 87 bd 8b 7c b3 3d
       0.53297794 -0.23040785 -0.0663946 0.08763989
000390 f8 75 8f 3e 23 bd 60 be 04 44 00 3c 2d e3 9c 3e
       0.2801969 -0.2194715 0.007828716 0.3064207
0003a0 6b e3 1b 3e 46 e7 88 be 03 27 e9 3e 7b 64 8e 3c
       0.15223472 -0.26738948 0.45537576 0.017381897
0003b0 bc f8 33 be 2d 9e 06 3e 7c 5f 03 bf 7d 4d 04 bf
       -0.17575353 0.13146277 -0.5131757 -0.5168074
0003c0 31 97 d4 3e 89 5f b2 be a6 da 02 bf af 7a 65 3d
       0.415216 -0.34838513 -0.5111488 0.056025203
0003d0 5b e8 c7 3d 83 ec 86 3e b2 6b 44 bd 32 76 73 3f
       0.09761115 0.2635232 -0.04795427 0.95102227
0003e0 76 64 18 3d aa 65 9a be 70 d5 5c be 34 ad 29 bd
       0.037205182 -0.3015569 -0.21565795 -0.041424945
0003f0 eb e4 22 bf cc 70 7b be 8b 42 0f be bc f6 d6 be
       -0.6363055 -0.24554747 -0.13990228 -0.41985118

norm1.weight f4 [10]
000000 2a 33 82 3f 4f 17 a3 3f 5e 4e 69 3f 32 cd 93 3f
       1.0171864 1.2741488 0.91135204 1.1546996
000010 73 a3 5f 3f 38 1b 80 3f 20 71 55 3f 30 48 85 3f
       0.8735878 1.0008307 0.8337574 1.0412655
000020 1f b4 82 3f e7 ee 88 3f
       1.0211219 1.0697907

norm1.bias f4 [10]
000000 a6 f8 65 be 80 80 25 be 8b 66 2e be 3b bd 50 be
       -0.22458133 -0.161623 -0.17031305 -0.20384686
000010 ec ca 49 bd 6f be cf be 64 4e 8b 3e de 84 7a bd
       -0.049265787 -0.40574977 0.27208245 -0.06116187
000020 31 fa 12 be 4d 92 d4 bd
       -0.14353253 -0.10379467

conv2.weight f4 [10, 10, 3, 3]
000000 9c 32 b4 3e 62 a0 06 3e 06 5d f2 bd 30 f9 de 3e
       0.35194862 0.13147119 -0.11834149 0.4354949
000010 4c af 57 be c1 9f 84 be 8e a2 89 3e b3 27 32 be
       -0.21062964 -0.25903133 0.26881832 -0.17397957
000020 96 88 c8 bd 85 02 95 be 4b 0b 5c 3c c1 bb b6 3d
       -0.09791677 -0.29103485 0.013430427 0.0892253
000030 05 bf 00 3d 59 69 4a 3a 9c 30 31 be 6e 22 02 be
       0.03143217 0.00077213865 -0.173037 -0.12708446
000040 37 b2 f6 bd ff 47 70 3e 10 77 85 be 3f 2a 8f be
       -0.120457105 0.23464964 -0.260674 -0.2796192
000050 ee 55 23 3e 48 02 b9 be b0 12 97 be 18 70 1f 3d
       0.15950748 -0.36134553 -0.29506445 0.03892526
000060 b5 d0 ab be 9f 67 9d bc 34 fe 85 3e ad c5 e5 bd
       -0.33557668 -0.01921445 0.26170504 -0.11219344
000070 47 3b 23 be c5 ee b6 be ad 6b 72 3e 11 45 7b be
       -0.15940581 -0.35729042 0.23673888 -0.24538065
000080 1d fb a7 3d e7 40 12 bd 03 77 21 bd 68 f6 45 3e
       0.08202193 -0.035706427 -0.03942014 0.19332278
000090 9f 26 38 3e d4 d6 e5 bd f7 06 eb 3b ab 9b 23 be
       0.17983483 -0.11222616 0.007172461 -0.15977351
0000a0 f8 6c 9a be 84 90 b5 bd d8 dc 8c b8 01 30 04 be
       -0.30161262 -0.08865455 -6.7168556e-05 -0.12908937
0000b0 93 78 92 bd a0 2d 2c 3e 7d 5b 3f 3d 3c db 58 bd
       -0.07151904 0.1681428 0.04671811 -0.052943453
0000c0 54 9b c0 bc 08 71 42 be 99 0d 3c be 55 8d 68 be
       -0.023511566 -0.1898843 -0.18364562 -0.22710164
0000d0 57 8b 7f bd 8b 7f db 3d 7a 4b 25 bd a0 ff 02 3d
       -0.062388744 0.10717686 -0.040355183 0.031982064
0000e0 48 ea 38 3e 2f 5a ec bd d3 57 8d 3e 00 db 7e 3e
       0.18058121 -0.11540639 0.27606067 0.2488823
0000f0 ff dd 7a 3b 84 7a fe 3d d4 5f 2b 3d 59 68 4a bc
       0.0038279293 0.12425712 0.041839436 -0.01235398
000100 22 b2 28 be fd 37 b7 bd f6 0c 8a 3d aa 4b 76 be
       -0.16474202 -0.08946226 0.06740753 -0.24052301
000110 e2 15 62 be 3f 7f a6 3d 6f df 7d bd c8 8b c9 3d
       -0.2207866 0.08129739 -0.06198066 0.09841114
000120 11 b6 a9 be 93 1a 8d be 02 56 4a 3e 54 c6 ad be
       -0.33146718 -0.27559337 0.19759372 -0.33940375
000130 20 db d0 bd fe 80 9c 3e 13 fd 28 3d e9 d2 1e 3e
       -0.10198045 0.30567163 0.041256975 0.15510143
000140 13 70 88 3e 8c 45 30 3e 1b 31 2a 3e 86 b7 62 3e
       0.26648006 0.1721403 0.16620295 0.22140321
000150 ed 49 83 be 24 a2 45 3d 12 e9 a1 3d 99 b6 a0 be
       -0.25642338 0.048250332 0.07905783 -0.3138931
000160 f0 45 1a 3e ec 92 e4 bd 30 b9 d0 bc 25 cb 28 3e
       0.15065742 -0.111608356 -0.02547893 0.16483743
000170 fa ab f4 3d 6e 5f ea 3b 06 5b e0 bd bf 43 45 3e
       0.119468644 0.0071524894 -0.10954861 0.19264124
000180 45 76 27 3e 0f c8 fa bd 9c c0 09 be 21 f8 6d 3e
       0.1635371 -0.122451894 -0.13452381 0.23239185
000190 84 12 90 be 73 82 99 bc 63 e7 b2 3d 4b 7e 0e 3d
       -0.28139126 -0.01873896 0.0873554 0.03478841
0001a0 f6 e3 01 3d 99 d3 82 3e fe fd 87 bd f4 d5 3a bd
       0.03171154 0.2555206 -0.06640242 -0.045614198
0001b0 cf 0d 46 be 8c ca b5 bd 50 7f 9b 3d 2e e5 26 3d
       -0.19341205 -0.088765234 0.07592642 0.040745907
0001c0 6a 27 86 be 77 1e 7d bd ba b4 03 3e 10 b3 39 3a
       -0.26201946 -0.06179663 0.1286191 0.00070838723
0001d0 a3 a1 6e bc 7a 8e 2f 3e 63 5e 11 3d 26 45 68 be
       -0.014564904 0.17144194 0.035490405 -0.22682628
0001e0 54 26 17 3e e4 4a 39 be 38 e7 94 3d 05 21 ae 3d
       0.14760715 -0.18094975 0.07270664 0.08502392
0001f0 d7 15 1f be 60 90 5f 3d 2d 05 51 3d 55 21 3f 3d
       -0.15535675 0.054581046 0.051030327 0.046662647
000200 0d ee 07 be a4 ef d0 3d c9 83 73 3e 64 89 54 3e
       -0.13274403 0.10201958 0.23780741 0.20755535
000210 c0 d7 7c 3b 69 af 40 3d 4f dd 9f 3d 2e a8 fd bd
       0.0038580745 0.047042284 0.07805883 -0.12385593
000220 05 61 7f bd 5a dd 03 be 87 58 aa bd 0f f3 91 be
       -0.062348384 -0.12877408 -0.083176665 -0.28505751
000230 e9 da 12 be ed 7c ef 3d e6 34 1e bc b9 88 8e be
       -0.1434132 0.116937496 -0.009656167 -0.27838686
000240 40 b3 5b 3e 6e 4c 45 3e a0 97 d2 be c0 88 51 3e
       0.21455097 0.19267437 -0.41131306 0.20462322
000250 7e ab f4 3e fb 87 2c 3d 62 b5 a0 bd 92 83 3c 3d
       0.47787088 0.04212187 -0.07847096 0.046023913
000260 dd 84 b7 bc 58 99 fd 3d ee 01 6e be ef e8 17 be
       -0.022402221 0.123827636 -0.23242924 -0.14834951
000270 c9 42 a8 3d b1 65 d6 3c 6e fd c4 3c ab d1 29 3e
       0.08215863 0.026171537 0.024046626 0.16583888
000280 04 cb 9f bc a6 85 23 3e eb 62 9c bd 8e 01 56 3e
       -0.019505985 0.15968952 -0.076360546 0.2089903
000290 b3 c9 47 3e cc 8c 56 bd c6 e8 0d be bf d7 e1 3d
       0.19510536 -0.052380368 -0.13858327 0.110274784
0002a0 39 5a f6 3d ad 54 a1 bd 9c dc c3 bd d8 df c2 3d
       0.12028927 -0.07877479 -0.09563562 0.09515351
0002b0 cb c5 c7 3d 24 d0 8a be 37 fd 73 bd 63 89 ab 3e
       0.09754523 -0.27111924 -0.059567656 0.33503255
0002c0 3c 08 24 be 50 96 0b be 84 5d 83 3d bd 42 a5 3d
       -0.16018766 -0.13631558 0.06414321 0.0806937
0002d0 1b d3 b3 3e a1 9c be be ac d5 fb bd 26 d3 ac bc
       0.35121998 -0.37228873 -0.12296614 -0.021096777
0002e0 e9 55 33 be 56 84 cf 3d af 1d ef bd 42 58 aa 3c
       -0.17513241 0.10132663 -0.116755836 0.020794038
0002f0 52 be fd 3c 9f 46 ac 3c 43 13 91 be df c2 fc bd
       0.03097454 0.021029769 -0.28335008 -0.12341856
000300 f8 4f af 3b cc 91 4f bf 21 e1 c7 bc b2 0d 20 be
       0.005350109 -0.81081843 -0.024399342 -0.15630224
000310 bd a0 00 be 5d 44 bd 3e 20 e5 e6 3d f9 86 0b be
       -0.12561317 0.3696622 0.11274171 -0.13625707
000320 2e f1 9f bc ef c5 6b 3e d0 a6 52 bc 10 a0 6a be
       -0.019524183 0.23024724 -0.012857154 -0.22912621
000330 75 26 6b 3d c8 79 70 be 87 cd d5 3d e8 e0 ce 3d
       0.057409722 -0.23483956 0.10439592 0.10101491
000340 d8 7a a0 be ef ca eb 3b 9d 32 4c be a2 db dd bd
       -0.31343722 0.0071958224 -0.19941182 -0.10832907
000350 d9 52 3a 3e 19 d5 78 3d b6 e6 2c be 4c 4d d0 be
       0.18195666 0.0607501 -0.16884884 -0.40683973
000360 98 51 4e be 24 e7 cc bd 49 6e 7b 3e 81 42 ee bc
       -0.20148313 -0.10005024 0.24553789 -0.029084446
000370 3b 26 be bd 35 96 3f 3e 48 8b 46 3e a8 18 86 3e
       -0.09284636 0.18709643 0.19389069 0.26190686
000380 86 d9 f6 bc 3e af c0 3d 7b be 0b be aa ce d7 bd
       -0.03013302 0.09408425 -0.13646881 -0.10537465
000390 03 c3 45 be 67 42 35 3d 63 0c 9c bd b7 13 77 be
       -0.19312672 0.04425278 -0.0761955 -0.24128614
0003a0 0c 53 bd 3e 11 97 f5 3d b0 38 2a bd 03 02 87 bc
       0.36977422 0.11991704 -0.041557968 -0.016480451
0003b0 13 dc 09 3d b9 53 05 3e a2 d0 c8 3d 5d 15 84 be
       0.033657145 0.13020219 0.098054186 -0.2579755
0003c0 eb e4 55 3e dc 4b 8c bd 82 b7 5a be 64 41 48 be
       0.20888107 -0.068504065 -0.21359065 -0.19556195
0003d0 bd d2 ce bd 1d ac 07 3e a4 9b ee 3d 83 12 cf be
       -0.10098789 0.1324925 0.1165078 -0.4044381
0003e0 a9 16 6f 3e 1a f5 32 3e e5 36 2c be df 3e 91 3e
       0.23348488 0.17476311 -0.16817816 0.2836828
0003f0 01 5c 11 3d 70 4e f2 bd 84 f4 0a 3e 4d ee 86 3d
       0.035488132 -0.11831367 0.13569838 0.06588421

norm2.weight f4 [10]
000000 82 51 87 3f 7b df 55 3f 2b fc 94 3f e5 23 78 3f
       1.0571749 0.8354413 1.1639456 0.9692977
000010 09 66 68 3f 55 25 8d 3f 76 33 86 3f b0 a1 9b 3f
       0.90780693 1.1027018 1.0484455 1.2158718
000020 b7 d9 79 3f e1 98 72 3f
       0.9759783 0.94764525

norm2.bias f4 [10]
000000 36 dc 2a be e9 ae 4a 3f 98 5f 45 be c8 ba 70 be
       -0.16685566 0.7917314 -0.19274747 -0.23508751
000010 6f 9d 8a 3c 1e cd c4 bd 27 8d 04 3e 7f f4 c6 bd
       0.016920773 -0.096094355 0.1294447 -0.09714603
000020 ba 5a 1e 3e 69 ac d4 be
       0.15464297 -0.4153779

tns1.weight f4 [16, 10, 1, 1]
000000 4c c0 6a 3e 1f 07 97 3e 2f 55 86 be 2c 5f 01 3f
       0.22924918 0.2949762 -0.26236865 0.50535846
000010 51 a3 29 3d 14 37 f2 3e 92 41 15 be 57 31 e9 be
       0.041415516 0.47307646 -0.14575794 -0.45545456
000020 a6 97 c2 be 50 ff d3 bd 68 d6 b1 3d 1f 34 17 bf
       -0.38006324 -0.10351431 0.08683473 -0.59063905
000030 da 4a bd 3e 98 fd 0e 3e 32 14 f7 3d e8 5f 94 be
       0.3697117 0.13963926 0.12064399 -0.2897942
000040 28 70 0d 3e 92 23 28 bf bc 06 0a 3f ae f2 f4 3e
       0.13812315 -0.65679276 0.53916526 0.478414
000050 0f 45 85 3e 4b 25 68 bd 72 15 c2 3e 1d a1 67 bd
       0.2602925 -0.05667619 0.37906986 -0.056550134
000060 55 18 3b 3d 01 44 f8 bd 4c f4 2f be 63 c1 07 3f
       0.0456775 -0.12122346 -0.17183036 0.5302946
000070 94 dd 8a be 0f 20 b7 3d fa 2a 9a 3e e6 5f 19 be
       -0.27122176 0.089416616 0.30110914 -0.14977989
000080 43 92 b3 be 9a 22 9a 3b b3 44 59 3e 7b 30 7f 3d
       -0.35072526 0.004703832 0.21217613 0.062302094
000090 98 f8 dc bd 21 45 68 3e 9c 0f 18 3d 6f 78 05 3f
       -0.10789603 0.2268262 0.03712426 0.5213689
0000a0 25 6a 1e 3f fb 98 0b be 86 77 3f be 26 29 15 be
       0.61880714 -0.13632576 -0.18697938 -0.14566478
0000b0 cf 4b a8 3e c8 82 8c be b1 1f 65 3e e3 9a 0c 3e
       0.32870337 -0.27443528 0.2237537 0.1373096
0000c0 8a 2e 2b be d6 92 cf 3d 7a 84 5d be eb d7 a5 be
       -0.16716972 0.101354286 -0.21632567 -0.32391295
0000d0 ca c1 d3 3e cf be d4 bd 3c a5 e8 be b6 cb f1 3e
       0.41358787 -0.10387956 -0.45438564 0.47225732
0000e0 a2 d8 d9 3e c0 be 86 3e f5 29 9d 3e 7b df a7 3c
       0.4254809 0.26317406 0.30696073 0.020492306
0000f0 0f fc df be 73 a4 52 be d0 9b bf be d0 ba 87 bd
       -0.43746993 -0.20570545 -0.37423563 -0.066274285
000100 ed 11 18 bf 7b 1f 87 bd 85 da 27 be f3 62 df 3e
       -0.5940235 -0.06597801 -0.16391952 0.4363018
000110 7c a2 a9 be 75 84 2e be 10 16 81 be b3 f0 ce be
       -0.33131778 -0.17042716 -0.25212145 -0.40418014
000120 77 34 ca be fa 30 2a bc 27 0c 7e 3e e6 63 04 3f
       -0.39493152 -0.0103876535 0.24809323 0.5171493
000130 51 b4 07 bf 4f f9 5d 3d 8f a2 1b 3f 84 26 07 3b
       -0.53009516 0.054192837 0.6079492 0.0020622322
000140 f9 fd a1 bd 31 7a 2f 3e 05 c1 3b 3e 8a 58 0c 3e
       -0.079097696 0.17136456 0.1833535 0.1370565
000150 1d b8 16 be 98 c8 3b be f1 64 05 3f 44 fa 37 3b
       -0.14718671 -0.18338239 0.5210715 0.0028072754
000160 fb 77 0b bf b6 eb 29 3f 7a b5 78 3e 06 d1 dd 3e
       -0.5447995 0.6637529 0.24287978 0.43323535
000170 cc c8 60 be 34 35 56 be 8b c6 05 be f1 a6 4e 3d
       -0.21951598 -0.20918733 -0.1306402 0.050452176
000180 0b c5 a8 3e f4 88 37 3e dc ef 9a be 53 3b d3 be
       0.32962832 0.17923337 -0.30261123 -0.41256198
000190 6c 9d ae be 46 15 17 bf 0f 62 d1 be 46 00 e4 bc
       -0.34104478 -0.59016836 -0.40895125 -0.027832162
0001a0 eb 43 ba be 7d 27 09 3e 95 b6 3c 3e 23 b7 0a bf
       -0.36379942 0.1339397 0.18429025 -0.54185694
0001b0 35 f0 dc 3d 1b 99 09 be 6c 6e 06 be 0f 65 7b 3d
       0.10788003 -0.13437311 -0.1312806 0.061375674
0001c0 cd dd 26 3f bb 2e 6a bc 84 80 5d be ce e7 94 3c
       0.6518219 -0.014293368 -0.21631056 0.01817694
0001d0 d4 f7 62 3d 10 5a a1 be 64 22 ba be e8 c3 9e be
       0.05541213 -0.31514025 -0.36354363 -0.3100884
0001e0 35 cb 31 3f 85 73 85 be 10 02 f8 bc e3 a8 fa 3d
       0.69450694 -0.26064697 -0.030274421 0.12239244
0001f0 16 b5 82 be 08 f2 3c 3e 43 fe 25 3f 74 8f 91 be
       -0.25528783 0.18451703 0.648411 -0.2842976
000200 eb ca 2f 3e 93 61 cf bd 65 78 70 3e b5 c6 19 bd
       0.17167251 -0.10126033 0.23483427 -0.037543017
000210 78 c9 2b 3e 40 86 36 3f 4b 01 35 3e d4 3d 5c 3d
       0.16776073 0.712986 0.17676274 0.0537699
000220 e0 7e a5 3d 56 35 e4 bc fb e1 89 be ec 4e bd 3e
       0.0808084 -0.027857464 -0.26930222 0.36974275
000230 7a 73 27 be 72 b6 a6 3e ca e6 6d be 05 b7 01 3f
       -0.16352645 0.3256107 -0.2323257 0.5066989
000240 e6 9d ac be 59 4b 12 3f 63 13 f8 3d 11 cb 77 3e
       -0.33714217 0.5714622 0.12113073 0.24198557
000250 65 c7 a7 be c6 40 ef bc fe 6e 20 bd 08 87 a5 be
       -0.32769313 -0.029205691 -0.03916835 -0.32329583
000260 70 71 01 be c0 4c a9 3e 4b 4e 19 3f 63 10 02 bf
       -0.12640929 0.33066368 0.5988509 -0.50806254
000270 68 2a 5f be b3 c6 52 be 5f ce a4 be d3 d5 03 be
       -0.2179352 -0.2058361 -0.321887 -0.12874536

conv3.weight f4 [24, 16, 3, 3]
000000 b8 19 0c be 45 d9 01 3e a0 2c e9 3d 4e 7a fd 3a
       -0.13681686 0.12680538 0.11385465 0.0019338818
000010 80 d8 0d 3e 98 a8 2d 3e f2 32 13 3c cb 55 fa bc
       0.1385212 0.16958845 0.008984314 -0.030558487
000020 4c e2 02 be 15 80 5a be 84 93 39 be d8 6d 67 bd
       -0.12781638 -0.21337922 -0.18122679 -0.05650124
000030 3f 35 b8 bc 01 91 3f 3d 89 17 ac bb 22 76 05 be
       -0.022486327 0.046769146 -0.005251829 -0.13033345
000040 91 4c 83 bd 8a eb db bd a7 08 f6 bd e6 20 ab 3d
       -0.06411088 -0.10738285 -0.12013369 0.08355884
000050 67 d1 95 3d 2c 07 8c bd e4 60 4e 3e 32 cc 18 bd
       0.07315331 -0.068373054 0.20154148 -0.03730411
000060 d9 97 85 3d 71 21 96 3d de b7 8a 3d ea 83 d2 bd
       0.06523103 0.07330597 0.06773351 -0.10279067
000070 d5 9e bd 3d 84 b2 15 be c4 9f 2e bb 87 95 de 3d
       0.092588104 -0.1461888 -0.002664552 0.10868364
000080 21 60 07 be 18 fe ce 3d d8 a2 23 3e c2 75 cc 3c
       -0.13220264 0.10107058 0.15980089 0.024958495
000090 61 60 1b be a6 d5 1f bd 0f d6 0c bc 25 7e 6e 3d
       -0.15173484 -0.03902211 -0.008595957 0.05822577
0000a0 e1 52 5c 3d e1 7c d4 bc c7 04 87 bb 46 dd 31 3e
       0.053789977 -0.025938453 -0.0041204426 0.17369565
0000b0 da d2 92 bc 62 3a 70 be c7 a2 57 bc 49 df b2 3b
       -0.017922807 -0.23459771 -0.013161368 0.0054587466
0000c0 3b 97 b3 3d 7b 76 9c 3e 70 dd 3e 3c 25 37 f5 bc
       0.08769079 0.30559143 0.0116494745 -0.029933522
0000d0 10 b1 af bd fe 3b 73 be 37 c9 4e be 0c fb 74 bd
       -0.08578694 -0.23753354 -0.20193945 -0.05980973
0000e0 94 3f 85 be 14 d5 f1 bd 96 2c 45 3d dc 23 ae bd
       -0.2602507 -0.118082196 0.048138224 -0.085029334
0000f0 2e 01 14 bd b4 43 24 3e 97 59 a3 bc f4 fa 37 be
       -0.036133938 0.16041452 -0.01994018 -0.17966825
000100 76 a9 5d bd 86 28 35 be 0c df 95 bd 1a 84 66 3d
       -0.05411669 -0.1769124 -0.073179334 0.056278326
000110 97 29 db 3c f7 92 00 3d 84 f0 53 3e 31 0b e1 3d
       0.02675323 0.031390157 0.20697218 0.10988463
000120 33 67 67 3d af 07 31 b7 50 01 aa bc 02 fe ac bd
       0.056494903 -1.0551811e-05 -0.020752579 -0.08446886
000130 f2 76 9e 3d 2e d9 fb 3c 84 45 1f be 10 6b 74 bd
       0.07737531 0.030743208 -0.15553862 -0.059672415
000140 fc e8 2f 3d e8 2c a9 bd ce 8f 25 bd 82 26 2e be
       0.0429468 -0.08260518 -0.040420346 -0.17006877
000150 17 be 70 bc 32 66 67 3e 6f 3d 0a 3d 7c 2f 98 be
       -0.014693758 0.22597578 0.033749994 -0.29723728
000160 7e 11 7e ba 1a 3c ff bd d9 23 b2 bb 8f 7e 2a 3e
       -0.00096919376 -0.12462635 -0.0054364023 0.16649841
000170 fc 51 60 3c d3 14 80 3d 7d f4 26 3e 52 e5 2c 3e
       0.013691422 0.06253972 0.16304202 0.16884354
000180 a3 f8 07 3d 6e 70 be 3d 60 d4 95 3c bb cf 0d be
       0.033196103 0.09298788 0.018289745 -0.13848774
000190 b8 db 87 3e 01 46 79 3e f3 34 09 3c 96 62 9d 3e
       0.2653482 0.2434311 0.0083744405 0.30739278
0001a0 63 c9 29 bb 0b 8e d7 3c 2a 07 ce 3d 21 cb 08 be
       -0.002590739 0.026312849 0.1005996 -0.13358738
0001b0 59 29 0b 3b a8 57 93 3d 09 79 0d 3d 0d c4 6b 3e
       0.0021234362 0.071944535 0.034539256 0.23024006
0001c0 48 4c 88 3e 28 a3 0f 3e 24 3c 81 bd ff 0c 24 3d
       0.26620698 0.14027083 -0.06310299 0.040051457
0001d0 af 45 28 be 7d 98 83 3c 71 ff 27 3e bc 3a e0 3d
       -0.16432832 0.016063923 0.16406037 0.10948703
0001e0 9d 7d 71 3d a8 84 ec 3c df 2f 88 bd b2 c4 b7 bd
       0.058957685 0.02887185 -0.06649756 -0.089730635
0001f0 a1 60 aa bc 3f 51 39 bd 9f 6f 46 bb 9f 77 85 3c
       -0.02079803 -0.045243498 -0.0030278934 0.016292391
000200 7b 32 d2 bd 22 8b 77 3d 39 ff 68 3e 1c 17 a5 3c
       -0.10263535 0.06043542 0.2275361 0.020152621
000210 84 a6 17 bd 9a 2f 43 bd d8 bc c0 bc cd 9d 82 be
       -0.037024036 -0.04765282 -0.023527548 -0.25511017
000220 4c fa 37 be 4e 54 b8 bd 24 0e 70 bd a7 95 4c bd
       -0.17966574 -0.09000455 -0.058607236 -0.049947407
000230 70 cb f4 3d eb 25 4d 3d 07 ab 1f 3e a0 7c 03 bc
       0.11952865 0.05008499 0.15592586 -0.008025318
000240 4f 37 ab 3b e7 2d 97 3d 0c 23 80 3b 1c 1f df 3c
       0.005225099 0.07381802 0.003910428 0.027236514
000250 e9 9c 9e 3d 19 f7 78 3c 6b 22 c5 bc 78 52 db 3d
       0.07744772 0.015195631 -0.024064263 0.10709089
000260 fa 2f ab 3d 06 0b 08 bd 14 17 ea bd c8 ec a8 bd
       0.0835876 -0.033213638 -0.11430183 -0.082482874
000270 cd 52 13 3e a4 3e 68 3c 5d 42 63 bd 28 81 43 3e
       0.14387055 0.014175091 -0.05548321 0.19092238
000280 69 24 5f 3e ad 5b 97 3e 12 79 09 3d e0 cb 06 bd
       0.21791233 0.2956213 0.033562727 -0.032909274
000290 f6 aa 84 3a 82 3c 1e bd b7 c5 15 be 05 b7 94 3c
       0.0010121751 -0.038631923 -0.14626203 0.018153677
0002a0 0b 43 07 bd dd a1 e2 3c af c3 fa bd 66 2c 05 bd
       -0.03302292 0.027665073 -0.12244355 -0.032513045
0002b0 01 36 09 bd 73 97 ed 3d e0 ad e8 bc b3 4c 79 bd
       -0.033498768 0.11601152 -0.028403223 -0.06086416
0002c0 ea 72 a7 bc d9 b3 85 3c e9 a6 c9 bd ec f6 bc 3c
       -0.020440537 0.01632111 -0.09846289 0.02306696
0002d0 80 46 8f bd 99 34 32 bd c4 5c 99 3a a0 e9 f2 bd
       -0.06995869 -0.043507192 0.001170062 -0.11860967
0002e0 9b 98 46 be 5a 78 e0 bd f4 8b 62 bd ed 96 c5 bd
       -0.19394152 -0.10960455 -0.05530925 -0.096479274
0002f0 f9 a9 12 bd fa 7b 9e 3d 03 8b fa bd 36 47 f1 3d
       -0.03580663 0.077384904 -0.12233546 0.117811605
000300 c3 dd 38 bd a6 f3 17 3d 07 9b 0d 3d f5 fe 28 3e
       -0.045133363 0.037097596 0.034571674 0.16503508
000310 5c db 01 bd 21 c5 e1 bd ba 91 2f 3e 99 f9 92 3d
       -0.031703338 -0.110239275 0.17145434 0.07176513
000320 1a 9d 47 3d d2 6b 99 3d e1 60 c4 bc f4 ef d5 3d
       0.048733808 0.07491268 -0.023971977 0.10446158
000330 03 bb 17 3d d2 a7 9a 3d f0 80 e9 3d 42 f6 5c 3d
       0.037043583 0.075515404 0.11401546 0.053945787
000340 89 e5 2a be 78 4f 19 bd c8 3b 0e bd bf e8 ad bd
       -0.16689123 -0.037429303 -0.03472498 -0.084916584
000350 1f e0 57 be 3f 2c 1c bc 2b 0f 0b 39 9d 17 00 3e
       -0.21081589 -0.0095320335 0.00013261724 0.12509008
000360 f1 ef 0b bd dc a3 21 bc 90 95 99 3d 66 91 ed 3c
       -0.034164373 -0.009865727 0.0749923 0.028999995
000370 56 b0 cc 3b 59 50 c7 3d e7 6a aa bd e2 21 84 bd
       0.006246607 0.09732122 -0.08321171 -0.06451775
000380 bc 4e 49 3e e7 2b 68 bc c4 20 6e bd a6 8f d0 3d
       0.19658941 -0.014170623 -0.058136716 0.10183649
000390 82 d9 d5 bd eb ef a4 ba 0b bf 30 3e b9 62 6b bb
       -0.10441877 -0.0012583708 0.17260377 -0.0035916998
0003a0 b9 66 f5 3c 53 e1 14 3e 63 19 27 be 7a 1d 10 be
       0.029956209 0.1453908 -0.16318278 -0.14073744
0003b0 e3 be 29 bd 42 33 86 3c c8 b2 ca 3c 28 cb 18 3d
       -0.04144181 0.016381864 0.024743453 0.03730312
0003c0 02 db 92 bc 7b a0 8e bd 06 22 33 3d 27 d7 6a 3d
       -0.017926697 -0.06964203 0.04373362 0.05733409
0003d0 7e 8c cc 3b 02 56 c4 3d e6 9d 29 3e 99 ca 0f 3e
       0.006242334 0.09586717 0.1656414 0.14042129
0003e0 42 82 43 3e 0b b9 7d 3e d8 7d 36 3e f2 2a fb 3d
       0.19092658 0.2477762 0.17821443 0.122640505
0003f0 aa 20 e6 bd a8 eb 13 bd 35 df 95 3d 9a b5 72 be
       -0.11236699 -0.03611341 0.07317964 -0.23702088

norm3.weight f4 [24]
000000 be 44 94 3f 97 93 4a 3f 18 9d 88 3f 5b 50 90 3f
       1.1583478 0.79131454 1.0672941 1.1274523
000010 c9 16 8b 3f 05 2c 8c 3f 18 b8 8c 3f bc 98 9a 3f
       1.0866328 1.0950934 1.0993681 1.2077861
000020 19 28 60 3f e0 d7 54 3f cc 97 92 3f 9a c8 62 3f
       0.87561184 0.831419 1.1452575 0.88587344
000030 22 0e 5e 3f f9 ec 76 3f 6f 55 81 3f 83 62 61 3f
       0.86740315 0.9645534 1.0104197 0.8804094
000040 d0 a2 78 3f a6 5f 5f 3f 5c fb 6e 3f 26 b1 8b 3f
       0.9712343 0.8725532 0.93352294 1.0913436
000050 d9 4e 8e 3f 07 25 8b 3f c8 6b 8c 3f 71 c9 7d 3f
       1.1117812 1.0870675 1.0970392 0.991355

norm3.bias f4 [24]
000000 35 f5 02 3e 95 e3 b6 bd 9a be a6 3e 00 ac fd bd
       0.12788852 -0.089301266 0.32567292 -0.12386322
000010 e5 f3 63 3e ba ed 1b bd 8f 27 5d 3e a1 a2 96 3e
       0.22261007 -0.03806851 0.21597122 0.2942095
000020 16 99 df be b8 8e 07 bf af af ac 3e e8 b5 e5 be
       -0.43671483 -0.52952147 0.33727786 -0.44865346
000030 86 98 aa be 79 60 c4 3d e8 b5 25 3d b7 13 47 be
       -0.3331949 0.09588713 0.040456682 -0.19441114
000040 3b 27 ac 39 b6 15 02 bc 9c ec d9 be 47 76 10 3e
       0.00032835625 -0.007939747 -0.4256333 0.14107619
000050 c5 5a 0a 3e 8c 70 3e 3e dc f1 9b 3d 99 7e 30 bd
       0.13511188 0.1859762 0.076144904 -0.043089483

conv4.weight f4 [16, 24, 3, 3]
000000 97 02 f0 3c 4e 09 66 bd f0 43 da 3d f7 38 a1 3d
       0.02929811 -0.056161217 0.10657489 0.07872193
000010 27 08 43 be 86 72 64 3c 06 2c 21 3d cb 64 f2 bd
       -0.19046079 0.01394332 0.039348625 -0.11835631
000020 c1 49 a8 bb 09 6e c8 bd 42 e7 4d bd 24 d4 a6 3c
       -0.0051357453 -0.097866125 -0.050269373 0.020364828
000030 a3 21 89 bd a3 b7 93 bd c6 5a 71 bd 0d 07 32 3d
       -0.06695869 -0.0721276 -0.05892446 0.043463755
000040 96 14 ba b8 4c 35 cc bd 4d a1 e7 3c 26 2e 73 bd
       -8.8730056e-05 -0.09971103 0.028275156 -0.059370182
000050 5c 6e 7a bd 46 77 9c bd 82 87 94 bd 65 8c fa bc
       -0.061140403 -0.07639937 -0.072524086 -0.030584523
000060 70 13 e6 bb 91 c6 16 bc ea 25 75 3c c3 93 2b bd
       -0.00702136 -0.009202615 0.014962653 -0.041888963
000070 6c 9b c5 bd 41 c8 f2 3a 11 f1 f2 3d df a4 65 bd
       -0.09648785 0.0018522815 0.11862386 -0.056065436
000080 86 e3 1b be b1 85 ca 3d ca 26 0b 3e 40 27 cc bc
       -0.15223512 0.09888781 0.13589016 -0.02492106
000090 46 d9 d2 bb 54 e8 90 bd 43 fa e7 3d 56 5d 24 bd
       -0.0064345924 -0.07075563 0.113270305 -0.040128075
0000a0 06 75 54 be 04 2a 8c 3c 75 9f 8c 3d 09 23 03 be
       -0.20747766 0.017109878 0.068663515 -0.12806334
0000b0 09 61 af 3c 3b b0 3d be 7c a5 68 be 5f 7e a0 bd
       0.021408575 -0.18524258 -0.22719377 -0.078366034
0000c0 b1 7e f2 bd 07 fb 95 be 80 dc f6 bd 84 31 90 3c
       -0.11840571 -0.2929308 -0.12053776 0.017601736
0000d0 d6 52 0f be 50 13 86 3d 5a b5 d2 bc 70 b2 87 3c
       -0.13996443 0.06546652 -0.02572124 0.016564578
0000e0 87 a2 b2 3d a1 fe 11 be 7d 39 9c 3d 28 7a be 3d
       0.08722406 -0.1425729 0.076281525 0.09300643
0000f0 e7 19 5b 3c 3f d0 8d bc ce 34 60 bc 6c b5 84 3b
       0.013372875 -0.017311214 -0.013684465 0.0040499475
000100 f0 68 03 3e c5 27 0b bc e4 f0 fd 3d b7 c3 3c 3e
       0.12832999 -0.0084933685 0.12399462 0.18434034
000110 a4 58 2a bd 14 ad ed bd 08 5b df bc 6c 14 94 bc
       -0.04158844 -0.11605278 -0.027265087 -0.018076144
000120 05 9a 60 be b4 c8 aa 3d 74 af e3 3b 5b 2e 8f be
       -0.21933754 0.08339062 0.006948406 -0.27965054
000130 1b 3e e7 bd aa 6d fb 3d bc 1b 37 be 6b a5 d1 3d
       -0.112911426 0.12276776 -0.17881674 0.10236629
000140 e5 06 56 3e 56 10 b6 bd 4f af 96 bc b7 2b 1c bc
       0.20901068 -0.088898346 -0.01839414 -0.009531907
000150 0f 5b 60 be ae a7 b9 bd 3b 9e 38 bd 70 8b 03 3d
       -0.21909736 -0.090651855 -0.045072775 0.0321154
000160 2c 4d 17 3d 9b 90 62 bc d1 83 ae bc 2c a1 e3 3c
       0.03693883 -0.013828422 -0.02130309 0.027786814
000170 48 7b 30 3e cf 9c c6 bd 81 22 f2 bc f2 0e 74 bc
       0.17234528 -0.096978776 -0.029557468 -0.014896141
000180 e1 a4 b8 3d fa 66 8d 3d 18 1f c6 3d a7 a9 d4 bd
       0.09015823 0.06904407 0.096738994 -0.10383921
000190 ae df 14 be de fc 8e ba a8 6d d8 bd c8 11 8e be
       -0.14538452 -0.00109091 -0.1056779 -0.2774794
0001a0 3c a1 6a be e7 9a b1 3b 3c e5 a9 bd b9 32 07 bd
       -0.22913069 0.005420077 -0.08295676 -0.033007357
0001b0 95 ba 54 bd 16 1f 9f bc ee fd ac 3d 91 5b e5 bd
       -0.05193575 -0.019424003 0.08446871 -0.111991055
0001c0 07 30 fd bd 8b 0a 22 bd 16 04 4e bd f0 81 c7 bd
       -0.12362676 -0.039560836 -0.050296865 -0.097415805
0001d0 6e 95 b6 3d 66 9d 88 3d d6 57 06 3e 5c 10 69 3d
       0.0891522 0.06670646 0.13119444 0.056900367
0001e0 b8 f5 87 bc a1 d1 ba 3d 4b 25 03 3e 1f 2d 63 ba
       -0.01659666 0.09122015 0.12807195 -0.00086660864
0001f0 27 ff 91 3c 63 c4 06 3e 4c 66 02 bc 12 72 12 3e
       0.017821861 0.13160853 -0.00795896 0.14301327
000200 a3 82 84 3d bd 9e c4 3d 08 8d a5 3d 6c bd 3e 3d
       0.064702295 0.096005894 0.0808354 0.046567366
000210 67 35 0f 3e d1 47 3f 3c 52 65 d0 bd 3e d1 10 be
       0.13985215 0.011674837 -0.10175575 -0.1414232
000220 c3 a7 23 be d1 a1 31 bd 3e 4d 29 be 6d 60 89 be
       -0.15981965 -0.04336721 -0.16533372 -0.2683138
000230 b0 77 bd bd d0 97 cf bd cf 05 2c be fd 4a d2 ba
       -0.09251344 -0.10136378 -0.16799091 -0.0016044077
000240 56 86 91 3d 25 11 6e bc 08 a6 1b bd a7 8a 27 bd
       0.07105701 -0.014530455 -0.038000137 -0.040903714
000250 98 d4 60 bc 41 40 1d be 18 5e d1 3d 20 ae e2 3d
       -0.013722561 -0.15356542 0.10223025 0.11068368
000260 4b 0d 6e bd 40 d2 29 3b fe 05 d9 3d cb 64 5d 3e
       -0.058118146 0.0025912672 0.10596846 0.2162048
000270 a2 0e 9a bb d6 ad 43 bd 1b c6 b2 3d 89 56 0f 3e
       -0.0047014514 -0.047773205 0.08729192 0.13997854
000280 01 33 4b 3c 62 5c 54 bd 03 17 06 3d 0f 6d ae bd
       0.012402297 -0.051845916 0.03273679 -0.08516895
000290 f9 ed 3b bd ef 2d 92 3d 01 a9 0a be 9d ad 54 be
       -0.045881245 0.071376674 -0.13541032 -0.20769353
0002a0 48 79 c8 3d ac 7b 00 3e ca e8 61 bd 82 be 4c 3d
       0.097887576 0.12547177 -0.055153646 0.04998637
0002b0 bb 88 ab 3d 98 61 e7 3d d6 9b b6 3d ac cb 64 bd
       0.08375689 0.112979114 0.08916442 -0.0558583
0002c0 7f d7 91 3d f3 36 98 3d 34 a2 a6 3c ad 3a d9 bc
       0.07121181 0.07432356 0.020341016 -0.026517237
0002d0 20 16 f5 bd 04 0f fe bd c0 29 97 3c f8 4d 18 be
       -0.11967111 -0.12405208 0.018452525 -0.14873493
0002e0 7a 94 d6 bd 49 7e be 3b 23 65 dc bc 47 6b 06 3d
       -0.104775384 0.005813394 -0.026903694 0.03281715
0002f0 ae 50 f6 3d db 70 94 bd 74 79 51 be 97 0d 91 bd
       0.12027107 -0.07248088 -0.20456487 -0.0708267
000300 3c 2e ad 3c b3 0d 36 be 8e dd 46 bd 4e 5a 49 bd
       0.02114021 -0.17778663 -0.048551135 -0.049158387
000310 f1 75 22 be 2b 02 07 bd 85 bf 16 3e 82 7f 05 3e
       -0.15865304 -0.032961052 0.14721496 0.13036922
000320 a8 df 28 3d 3e 2b 0d 3d 12 63 7e bc eb 29 37 3c
       0.04122892 0.034465067 -0.01552655 0.011179428
000330 73 57 62 bc 03 6e fb bb 37 56 60 bd 8a 5d 50 bc
       -0.013814795 -0.0076730265 -0.05476972 -0.012717614
000340 61 3a 82 3d 20 30 39 3d 90 12 33 bd 97 9b 96 3d
       0.06358791 0.04521191 -0.043718874 0.07353895
000350 28 ac 88 3d 40 7b b0 3d 3e 0e 80 3d 01 9f 1b 3d
       0.06673461 0.08617258 0.062527165 0.037993435
000360 59 a4 1e 3d a4 f7 16 3e 5b 88 f0 3d 0f 00 b4 3c
       0.038730953 0.14742905 0.11744758 0.021972684
000370 7f 83 56 bd 4d a2 86 3d 38 e7 a8 bd 3c d1 86 3d
       -0.0523715 0.06573925 -0.082472265 0.06582877
000380 03 6f 58 3c 8c 91 cf bc 56 3f 55 be 5a 06 54 be
       0.013210061 -0.025337957 -0.20824942 -0.20705548
000390 d6 1a 6a bd 40 ad 94 3c 3b 68 f1 3c f7 dc c7 3c
       -0.0571545 0.018149018 0.029468646 0.024397356
0003a0 14 a2 82 3c ed dd ed 3c 6c 57 8f bd f6 1b c7 bc
       0.015946425 0.029036487 -0.06999096 -0.024305325
0003b0 51 53 0b bd 59 e7 fd bd bf 85 d9 bd c6 9c 84 bc
       -0.034015004 -0.12397642 -0.10621213 -0.016188037
0003c0 f8 5a ec bd fb 33 d3 bc 44 cf 8d 3b db 76 5d be
       -0.115407884 -0.025781622 0.0043276865 -0.21627371
0003d0 9c 38 fe bd 64 44 df bd d7 6a ba 3d 41 15 96 bc
       -0.12413141 -0.10901716 0.09102409 -0.018320682
0003e0 fd 66 7a bd 3f 50 11 3e 4f c9 c2 3b a7 d3 29 bd
       -0.061133374 0.14190768 0.005944408 -0.041461613
0003f0 f3 14 d4 bd b2 2e 3f be b9 4b c3 bd 3d d5 4d bd
       -0.10355558 -0.18670157 -0.09535927 -0.050252188

norm4.weight f4 [16]
000000 36 fb 97 3f c7 7f 80 3f c9 57 8b 3f 2a e7 91 3f
       1.1873538 1.0038995 1.0886165 1.1398671
000010 b5 14 90 3f a0 09 8c 3f 11 1f 86 3f 2d d8 8d 3f
       1.1256319 1.0940437 1.0478231 1.1081597
000020 74 6e 72 3f d1 da 94 3f ab e4 80 3f 47 0b 79 3f
       0.9469979 1.1629277 1.0069784 0.9728283
000030 bc 26 83 3f 72 a1 84 3f 1d 18 86 3f a4 92 7f 3f
       1.0246196 1.0361769 1.0476109 0.9983313

norm4.bias f4 [16]
000000 55 ad 8a 3d 65 f2 cf ba a9 3d 48 be 14 7f 8d 3d
       0.06771342 -0.0015865086 -0.19554771 0.06909004
000010 0e bf 34 bd 84 ce 52 bc 75 4f 2b bd 2a dc c2 bd
       -0.044127516 -0.01286662 -0.041823823 -0.09514649
000020 fc 12 26 be ba 8c e7 3d f1 fc 81 3d ef 39 b9 bd
       -0.1621818 0.11306138 0.06347073 -0.09044253
000030 74 4c 9b bd ec 67 e0 3d e8 b4 08 3e c3 db 66 be
       -0.07582942 0.109573215 0.1335026 -0.2254477

conv5.weight f4 [32, 16, 3, 3]
000000 86 dd 1c 3e 79 90 8b bd b9 8e d5 bd 1d db 9e bd
       0.1531888 -0.06814665 -0.10427613 -0.07756636
000010 0e 08 ed bd 6a 17 b7 3b c7 e8 02 bd a1 1d b2 bd
       -0.11573802 0.005587508 -0.031960275 -0.086970575
000020 fc fd f0 3c e7 89 9a bd 9e 63 9a 3d 09 33 ac bc
       0.029417984 -0.07545834 0.07538532 -0.02102043
000030 9e 43 88 3d ed 00 df bd ba 23 08 bd 3c ee 88 3c
       0.06653522 -0.108888485 -0.033237197 0.016715162
000040 35 1a db bc 14 92 a5 bd 44 18 0c be 91 a1 24 bc
       -0.026745895 -0.08084503 -0.13681132 -0.010048286
000050 85 6c 42 be 1a 46 0a bd 03 c4 03 be eb 57 af bd
       -0.1898671 -0.03375826 -0.12867741 -0.08561691
000060 3d 27 62 3d 06 9b ad 3b 54 96 85 3c 37 57 9f 3c
       0.0552132 0.0052980212 0.016307034 0.019450767
000070 dd 39 42 bc 53 fd dd bd 80 ca 11 bb 2c d7 f0 bd
       -0.011854616 -0.108393334 -0.0022245944 -0.11759791
000080 0e b6 20 bd 74 96 b5 3d a6 5d c7 3d b8 ea 85 bd
       -0.03923612 0.08866587 0.09734659 -0.0653891
000090 bb 22 8d bd 73 34 84 bd 71 c7 d9 bd 6d c9 e0 bd
       -0.0689139 -0.064553164 -0.106337436 -0.10975919
0000a0 67 0e 09 be 25 91 20 bd 1c ec d6 3d 4a 11 f1 bd
       -0.133844 -0.03920092 0.10494253 -0.11770876
0000b0 c0 2a 94 3d 68 8d 91 bd 52 1e 36 bd e4 a4 06 bc
       0.072347164 -0.07107049 -0.04446251 -0.008218024
0000c0 64 d9 b8 bd dd 85 63 be 74 91 89 bc 0b 1e 11 be
       -0.09025839 -0.22219034 -0.01679299 -0.14171617
0000d0 ee 07 c2 bd c2 5d 0f 3e 21 9b f0 3d fd 4a d1 3d
       -0.09474169 0.1400061 0.117483385 0.10219381
0000e0 a4 28 dc bc ec 8d 8d 3e 71 08 ae bc b4 a9 d1 bd
       -0.026874848 0.2764734 -0.02124426 -0.102374464
0000f0 58 ac 47 3d 64 69 3c be 81 d6 bb bd d8 c2 1d be
       0.048748344 -0.18399578 -0.09171773 -0.15406358
000100 99 2f ea bc 9d 47 88 bd 57 36 b8 bd c9 b2 71 bd
       -0.02858715 -0.06654284 -0.089947395 -0.059008393
000110 1d e5 cf bc 5b 20 b5 bd b2 11 34 bd 0e 7f 2a bd
       -0.025377804 -0.08844062 -0.043962188 -0.041625075
000120 4a 15 61 bd 38 5c c3 bc c9 d7 bf 3b ff 9b c9 bd
       -0.054951943 -0.023847684 0.005854581 -0.09844207
000130 ca 0f 65 bd 68 18 2d bd 25 ff f3 bc 51 3b 51 3d
       -0.05592326 -0.042259604 -0.029784748 0.05108196
000140 4d 94 24 bd 99 47 e6 3c ab a0 11 be e1 24 d3 bd
       -0.040180493 0.028110312 -0.14221446 -0.103097685
000150 d0 72 1f bd 28 56 c7 bd e9 bd 29 3d f7 bc a0 3d
       -0.038927853 -0.0973323 0.041440878 0.07848542
000160 26 a3 e4 3d fa f0 dc bb a0 d5 b0 3b 6c 10 02 3d
       0.111639306 -0.006742594 0.00539656 0.031753942
000170 cd c1 99 3d 94 2e 8f bc 29 a5 bf bd cd c6 0b 3e
       0.07507668 -0.017478265 -0.09357674 0.13650055
000180 a6 58 bb bd ab 58 df 3c a4 15 f6 3d 06 ca aa bd
       -0.09147768 0.02726396 0.12015846 -0.08339314
000190 a2 1f ca bd 70 99 21 3d 73 31 6d be 5c 57 de bc
       -0.09869315 0.03945297 -0.23163395 -0.027141266
0001a0 0b 87 67 3c fb 08 89 bd 68 66 72 bd 45 6a 31 3e
       0.014131318 -0.06691166 -0.059179693 0.17325695
0001b0 fd 34 8f bc 1a 15 09 3d a9 4a d0 3c 92 a7 00 3d
       -0.017481321 0.03346739 0.025426226 0.031409808
0001c0 de e1 10 3e a8 28 1b 3e a2 4f 49 bd f9 87 34 3e
       0.14148661 0.15152228 -0.04914821 0.17629994
0001d0 f0 38 85 3e b3 02 a9 3d 4b 84 ba bd 6b c3 64 be
       0.26020002 0.08252468 -0.09107264 -0.22340171
0001e0 22 2b 74 3e e7 5b 30 3d b8 d4 57 bd 9b e4 32 3e
       0.23844579 0.043056395 -0.0526931 0.17470019
0001f0 3a 9e bb 3d db d6 82 3e 09 99 5c 3d b1 b6 df bd
       0.09161039 0.25554547 0.053856883 -0.109235175
000200 81 78 9e bd a2 c1 c7 bd c6 47 75 bb 6f 33 af bd
       -0.07737828 -0.097537294 -0.0037426814 -0.08554732
000210 05 ac 11 3c ef 1b 9a bc 4a 7c 14 be 64 7f d0 3d
       0.00889111 -0.018812148 -0.14500538 0.10180548
000220 36 2f 84 3d b0 f3 38 bd b0 86 66 bd 2e f4 82 bd
       0.06454317 -0.045154274 -0.05628079 -0.0639423
000230 f5 b1 87 bd f7 b3 72 3c 9a b2 68 3d 72 f7 a9 bd
       -0.066257395 0.014813415 0.056810953 -0.082991496
000240 84 10 bc bc 07 32 33 be ba 1f 03 be 12 d8 f6 bd
       -0.022957094 -0.17499553 -0.12805071 -0.12052931
000250 f7 89 59 bd a7 41 b8 bd bf 99 bf bc c0 d3 3a 3e
       -0.05311009 -0.08996897 -0.023388742 0.18244839
000260 eb ec 61 3c 7a 4d c8 3c 53 20 68 3c b5 3e 48 bd
       0.013789396 0.024451006 0.014167863 -0.048887927
000270 0c 98 c8 3d 69 24 3a bd b7 58 b7 bd 2e ca 89 3d
       0.09794626 -0.04544488 -0.08952468 0.06728016
000280 a9 ee ca 3d 7d e6 e5 3d da 66 0b 3c a6 3b 8b 3d
       0.09908802 0.11225603 0.008508408 0.067984864
000290 59 18 8f 3d 2b 0a aa 3d 4c 89 31 be 0c 33 28 be
       0.06987066 0.08302721 -0.17337531 -0.16425723
0002a0 11 2e 48 be c5 10 7c bd cc ed 82 3d d2 65 40 bd
       -0.19548823 -0.06153943 0.063930124 -0.046972103
0002b0 c1 d8 73 bd db f4 55 3d 3d 48 02 3e 1c aa 0e bd
       -0.059532885 0.052235465 0.12722869 -0.034830198
0002c0 cd a9 fd 3c 5a 53 b7 3d 13 ce 65 3d 89 8c d7 3d
       0.030964756 0.08951445 0.05610473 0.10524852
0002d0 71 81 08 3e bd f0 09 3e d4 47 62 bd 6f 04 e0 3c
       0.13330628 0.1347074 -0.055244282 0.027345864
0002e0 40 f3 a4 bd 3f fb d9 3d a0 43 0d bd e9 e6 29 bd
       -0.08054209 0.106436245 -0.03448832 -0.04147998
0002f0 d8 94 d7 3d fd 2e 5c bd 57 25 e2 3d df 81 b8 bd
       0.105264366 -0.05375575 0.11042278 -0.09009146
000300 dc 31 eb ba 3c cb 8d be 57 e4 05 be 10 fe 06 bd
       -0.0017943936 -0.27694118 -0.13075386 -0.032957137
000310 4d cc d9 bc 2f 2d bb bd 50 be c7 3d ad 7e 96 3e
       -0.026586676 -0.091394775 0.09753096 0.2939352
000320 4e 4e 20 bd d2 e6 04 3e 7c a5 61 bd 16 40 53 bd
       -0.039137177 0.12978676 -0.05508946 -0.05157479
000330 dd 6a 6a bd a3 93 b0 bd 60 54 4b 3d 77 49 cb 3c
       -0.05723082 -0.086219095 0.049641013 0.024815304
000340 9d f6 70 3e db f7 72 3d 14 f9 20 3e 7a 45 5d 3d
       0.23531576 0.059318405 0.15720016 0.054021336
000350 18 b4 00 bd 2e 95 c1 3d 13 66 6d bd da 15 ce bd
       -0.03142175 0.09452282 -0.057958674 -0.100627616
000360 ad d4 e3 bd cd 00 b4 bd 8b 88 08 bd 00 61 a0 bd
       -0.11124549 -0.08789215 -0.033333343 -0.07831001
000370 7b c8 c4 bd 42 6f 14 3c d5 bf bf 3c e2 81 25 bc
       -0.09608551 0.009059729 0.023406902 -0.010101767
000380 66 64 f9 bd 4c 7d ab bd 9a 7c 1f be 61 22 11 bd
       -0.121773526 -0.08373508 -0.15574875 -0.035433177
000390 fb be b9 bc 8a 35 60 3d 35 60 99 3d df 6e 6e 3e
       -0.022674074 0.05473856 0.07489053 0.23284481
0003a0 0d 20 84 3e 7c d3 54 3d f9 b4 cb bd ce 82 60 3e
       0.25805703 0.0519595 -0.09946627 0.21924898
0003b0 bc 67 9d 3d dd b9 b1 3d 7c 0c b0 bc eb 0b 97 bc
       0.076858014 0.08678029 -0.021490328 -0.0184383
0003c0 f5 f1 f7 bd 42 ad 04 be 0f 03 af 3d b1 20 b8 bd
       -0.121066965 -0.12956718 0.08545505 -0.089906104
0003d0 80 b7 b6 bd 1b 32 b0 3c 74 54 2d 3d db 4b be 3d
       -0.089217186 0.021508267 0.04231687 0.09291812
0003e0 26 06 74 3d 3e f0 cf 3c e2 88 8f bd 1f 10 a0 3c
       0.059576176 0.025383111 -0.0700853 0.019538937
0003f0 60 af 16 3e 57 c5 b4 3d f9 94 cb 3b ae 83 d3 3d
       0.14715338 0.08826702 0.0062128273 0.1032785

norm5.weight f4 [32]
000000 e0 5a 8c 3f f8 c8 7a 3f 15 6b 8a 3f fc 4f 79 3f
       1.0965233 0.97962904 1.0813929 0.9738767
000010 4f 1a 88 3f 61 31 77 3f 84 db 82 3f f4 a5 80 3f
       1.0633029 0.9655972 1.0223241 1.0050645
000020 bb 74 8d 3f 82 d8 8b 3f c3 b0 77 3f 65 ed 7e 3f
       1.1051248 1.0925448 0.9675409 0.99580985
000030 7b 82 83 3f f3 9a 58 3f 7f bc 87 3f c5 0e 75 3f
       1.0274194 0.84611434 1.06044 0.9572566
000040 62 88 55 3f ad 27 87 3f d7 c5 87 3f b6 0d 71 3f
       0.8341123 1.0558983 1.0607251 0.94161546
000050 23 fd 81 3f 3e b0 8d 3f 02 53 83 3f f6 8f 87 3f
       1.0155376 1.106941 1.0259707 1.0590808
000060 eb d7 85 3f 1d 19 88 3f 52 38 81 3f ad a3 89 3f
       1.0456518 1.0632664 1.0095313 1.0753075
000070 45 d5 7a 3f 63 92 82 3f 5b f8 6e 3f a0 37 85 3f
       0.97981673 1.0200924 0.9334771 1.04076

norm5.bias f4 [32]
000000 f3 4a 76 bd 2c 88 d8 bd 6d e5 74 be 78 76 1d 3e
       -0.06013007 -0.10572848 -0.23915644 0.15377223
000010 9c 3a c8 bc 50 e3 90 3e b8 ab 01 be bf 99 dd bd
       -0.02444201 0.28298426 -0.12663162 -0.1082034
000020 0d 04 13 be 76 a1 8f be 70 cf 06 3e ec b7 05 3e
       -0.14357014 -0.28052872 0.13165069 0.13058442
000030 b1 89 e2 3c 5c 17 5f 3d 16 9c 45 bd 92 1d 12 3b
       0.027653547 0.054465637 -0.04824456 0.0022295457
000040 3a f6 47 3e 9d c1 50 3e a5 8d 84 be 62 31 0d 3e
       0.19527522 0.20386358 -0.25889316 0.1378837
000050 c3 da bf bd 63 6d 96 be 11 99 8e bd ef 58 cb 3c
       -0.09367897 -0.2938033 -0.06962789 0.02482268
000060 37 f7 8e 3d 7c e8 43 bd 35 e9 4f be 68 c5 83 be
       0.06980746 -0.047829136 -0.20303805 -0.25736547
000070 b1 6e 45 3c af a9 4d 3e c3 ff dd 3d 04 e7 87 be
       0.012050317 0.2008426 0.10839798 -0.26543438
