S8/Weights/model_LN.pth (torch, 157092 bytes, 27 tensors)

conv1.weight f4 [10, 3, 3, 3]
-0.6889831 -0.11385027 -0.27321476 0.10524034 -0.54083633 -0.07629192 0.75898004 0.40647638
0.5762473 -0.11539716 -0.17214727 -0.15200368 0.19078785 -0.5281311 -0.21292225 0.42281312
0.27223653 0.11617846 -0.019262278 0.11291893 0.24117875 0.038171608 -0.73743963 0.05044462
0.27953565 -0.10927033 0.23916487 0.4785462 0.18935266 0.09224057 1.0967644 0.12783006
-0.024650075 0.14352761 -0.22654298 -0.00070689694 0.1494327 -0.33232307 0.060174447 0.24988535
-0.6589203 -0.5047983 -0.12047584 -0.19500783 -0.045200538 0.1239556 -0.24383534 0.0334905
0.3609069 -0.7383559 -0.57921875 0.19722874 0.0047545736 0.15028372 -0.08397484 -0.1677225
-0.122311465 -0.37320536 -0.41637942 0.778965 -0.06063268 0.20340863 0.22492024 0.13094684
0.08599489 -0.06647243 -0.21819818 -0.52337515 0.8940695 0.16314238 -0.10536645 0.15410794
0.2844005 0.07015622 -0.13774951 -0.46855015 -0.87339693 0.6125981 0.12678999 -0.3867172
-0.06419665 0.07521474 0.6242428 0.36256212 0.45145428 0.0018904865 0.43022954 -0.27742136
-0.4344351 0.015645396 -0.21212628 -0.16086252 -0.14990218 0.52012885 -0.5724843 -0.08232414
0.18036388 -0.51473004 0.16632913 -0.5050543 -0.18472691 -0.03305731 -0.078455634 -0.43649822
0.3775241 -0.009659055 -0.353955 0.6246013 0.16408846 -0.023437787 -0.053198636 0.28758928
-0.566188 -0.28647673 -0.18709286 -0.0031630925 0.13315237 0.15396753 -0.0117662195 0.110156566
0.5810404 -0.47873122 -0.41587338 -0.24606472 0.020042384 0.19692367 0.38703185 0.04913235
-0.16350012 0.80977094 -0.14462301 -0.15096252 0.20292403 0.21732727 0.0994923 0.49286708
0.6384826 0.55505896 -0.03142487 -0.26922196 -0.21317165 -0.27399635 -0.48638195 -0.23919587
-0.12142438 0.556125 0.38685265 -0.24914762 -0.5892617 -0.023388319 -0.036250316 -0.46961546
0.014599067 -0.06905156 0.45129263 -0.08331088 0.22634211 -0.28915265 -0.07370282 -0.051993467
0.02846942 -0.05543312 0.38399816 -0.41445658 -0.034930397 -0.28582537 -0.43041766 -0.40246376
-0.114911646 0.012450396 -0.15927938 -0.06729807 -0.31028762 0.10387019 -0.0450951 0.28349409
-0.15599868 -0.47218686 0.40430987 -0.09619959 -0.18713649 -0.06826679 0.019433685 0.20033467
0.66240853 0.23276964 -0.15805182 0.8245561 0.22293726 -0.11701513 -0.4655213 -0.14656708
0.2667318 -0.18116237 0.27421507 -0.045117307 0.23412699 0.10589594 -0.08333736 -0.42688775
-0.08469844 0.07950231 -0.384547 0.15098205 -0.2052496 -0.2452943 -0.25681368 0.42707053
0.19102488 0.33124933 0.24105464 -0.19447367 -0.1492917 -0.19280986 -0.024954159 -0.18141676
-0.34333023 0.36050525 0.2932455 -0.43459222 -0.17179023 0.42208117 0.0035356523 -0.12776017
0.2647497 -0.18757866 0.6111707 0.119429514 0.05987977 -0.15132564 -0.05615547 0.4121693
0.10831897 -0.16885203 0.2711469 0.322428 -0.4882699 -0.16394317 -0.44773886 -0.62959397
0.44227126 -0.3355398 -0.33520147 -0.046458263 -0.03721057 0.17091946 -0.26361856 0.49266383
0.16164929 -0.5180054 -0.19466756 0.014707972 -0.5058251 -0.22967416 -0.3426795 -0.26067653
00000000: 3261 30bf 552a e9bd cee2 8bbe 3f88 d73d
00000010: 4074 0abf f03e 9cbd 844c 423f ac1d d03e
00000020: f184 133f 5955 ecbd 6047 30be daa6 1bbe
00000030: e45d 433e 9a33 07bf 4a08 5abe f67a d83e
00000040: 9662 8b3e f9ee ed3d edcb 9dbc 0a42 e73d
00000050: 90f7 763e d559 1c3d d8c8 3cbf 059f 4e3d
00000060: 4c1f 8f3e 1fc9 dfbd a3e7 743e 0204 f53e
00000070: aae5 413e a0e8 bc3d c762 8c3f e2e5 023e
00000080: f4ee c9bc e7f8 123e e2fa 67be 0d4f 39ba
00000090: e304 193e 4026 aabe 7b79 763d f2e1 7f3e
000000a0: 00af 28bf 763a 01bf 0abc f6bd 22b0 47be
000000b0: 3324 39bd 6fdc fd3d f9af 79be 562d 093d
000000c0: cac8 b83e e404 3dbf ae47 14bf 55f6 493e
000000d0: 41cc 9b3b fae3 193e 00fb abbd 72bf 2bbe
000000e0: 6f7e fabd c614 bfbe af2f d5be 406a 473f
000000f0: f959 78bd 5a4a 503e 7e51 663e ee16 063e
00000100: 171e b03d b322 88bd 586f 5fbe eafb 05bf
00000110: bde1 643f cc0e 273e 5eca d7bd 79ce 1d3e
00000120: f19c 913e 10ae 8f3d 350e 0dbe cee5 efbe
00000130: f196 5fbf 3bd3 1c3f 3cd5 013e ccff c5be
00000140: 8979 83bd 300a 9a3d 60ce 1f3f bea1 b93e
00000150: 0425 e73e 33ca f73a 0c47 dc3e 2c0a 8ebe
00000160: 476e debe c62a 803c a237 59be 25b9 24be
00000170: f57f 19be 2a27 053f 558e 12bf 8f99 a8bd
00000180: 4fb1 383e 59c5 03bf 2f52 2a3e 3d4b 01bf
00000190: 0d29 3dbe 1a67 07bd 59ad a0bd b27c dfbe
000001a0: d74a c13e 0341 1ebc 9739 b5be dfe5 1f3f
000001b0: ce06 283e 9a00 c0bc d0e6 59bd e73e 933e
000001c0: b2f1 10bf 14ad 92be 4595 3fbe e34b 4fbb
000001d0: 1859 083e aaa9 1d3e 1ac7 40bc c499 e13d
000001e0: 10bf 143f 421c f5be 5bed d4be 64f8 7bbe
000001f0: ed2f a43c 5ca6 493e 0a29 c63e 013f 493d
00000200: 936c 27be 264d 4f3f 0e18 14be eb95 1abe
00000210: 51cb 4f3e 0a8b 5e3e 9ec2 cb3d 1359 fc3e
00000220: 9873 233f 5818 0e3f 5db7 00bd 76d7 89be
00000230: ab49 5abe 4049 8cbe 0e07 f9be c3ef 74be
00000240: 58ad f8bd 355e 0e3f 8d11 c63e 8e20 7fbe
00000250: dbd9 16bf dc98 bfbc 367b 14bd 7071 f0be
00000260: ed30 6f3c e76a 8dbd d40f e73e e59e aabd
00000270: 3ac6 673e d10b 94be 81f1 96bd 1af7 54bd
00000280: b338 e93c d70d 63bd 689b c43e a733 d4be
00000290: 2d13 0fbd b457 92be b45f dcbe bb0f cebe
000002a0: cc56 ebbd bffc 4b3c 221a 23be 92d3 89bd
000002b0: 05de 9ebe e5b9 d43d a4b5 38bd 2326 913e
000002c0: 1ebe 1fbe 7ac2 f1be b401 cf3e 4a04 c5bd
000002d0: b5a0 3fbe 75cf 8bbd 6433 9f3c 8824 4d3e
000002e0: 9b93 293f 2a5b 6e3e 56d8 21be 1c16 533f
000002f0: aa49 643e a1a5 efbd cf58 eebe ae15 16be
00000300: 1291 883e a182 39be eb65 8c3e edcc 38bd
00000310: fcbe 6f3e f8df d83d c7ac aabd 0891 dabe
00000320: 6076 adbd 1bd2 a23d 58e3 c4be 0a9b 1a3e
00000330: f32c 52be 6e2e 7bbe 157d 83be fda8 da3e
00000340: 079c 433e 8399 a93e 07d7 763e 1b24 47be
00000350: ecdf 18be f36f 45be aa6c ccbc 51c5 39be
00000360: fbc8 afbe 2594 b83e 4624 963e df82 debe
00000370: c7e9 2fbe 061b d83e 67b6 673b 90d3 02be
00000380: 468d 873e 9f14 40be af75 1c3f 7697 f43d
00000390: 7d44 753d 1cf5 1abe 4703 66bd db07 d33e
000003a0: 56d6 dd3d 8ce7 2cbe c4d3 8a3e 4815 a53e
000003b0: 83fe f9be b8e0 27be 073e e5be 122d 21bf
000003c0: 6171 e23e dfcb abbe 879f abbe 054b 3ebd
000003d0: 1c6a 18bd 8305 2f3e 03f9 86be 6f3e fc3e
000003e0: 6487 253e 009c 04bf ef56 47be b5f9 703c
000003f0: c17d 01bf b42f 6bbe b073 afbe 6577 85be

norm1.weight f4 [10]
0.9302018 0.9229578 1.1601535 1.1659389 1.0959165 0.8239697 1.1778063 0.7279944
1.1119753 1.1117162
00000000: b521 6e3f f646 6c3f e97f 943f 7c3d 953f
00000010: fe46 8c3f aeef 523f 5bc2 963f d75d 3a3f
00000020: 3555 8e3f b74c 8e3f

norm1.bias f4 [10]
-0.17757758 -0.47700626 -0.1670717 -0.08736654 0.22533114 -0.08947098 0.41648495 -0.16470492
-0.16887529 0.14095375
00000000: e6d6 35be 2a3a f4be d814 2bbe 3bed b2bd
00000010: 35bd 663e 903c b7bd 843d d53e 68a8 28be
00000020: a5ed 2cbe 2e56 103e

conv2.weight f4 [10, 10, 3, 3]
0.22330657 0.14858814 0.25403306 -0.003184667 -0.22854401 -0.042137645 -0.07880749 0.10470154
0.11783563 -0.07858652 -0.23767057 -0.34510672 -0.12240936 -0.31743574 -0.078592435 0.23179944
0.37103048 0.59267724 0.10913035 0.2956713 0.017891383 0.16550738 -0.62229806 -0.2376016
-0.32902262 0.060425602 0.21542564 -0.01037692 -0.3680771 -0.35902938 -0.16958503 -0.013484511
0.26935455 0.035846554 0.27832797 0.028184423 0.2640691 0.08724902 -0.110759236 -0.21936695
-0.3251814 0.016605021 -0.12744166 0.020640738 0.1287849 0.12545674 -0.02669037 -0.06499204
-0.22707587 -0.21619241 -0.054442864 0.0038319842 0.17808323 0.021350518 0.14018394 0.1866666
0.027521685 -0.091087386 -0.24637625 -0.11728312 0.010212463 -0.25372556 -0.061925266 -0.039109357
0.054488674 -0.116550334 0.10848034 0.018621117 -0.06172734 -0.041865088 0.017724296 -0.053227536
0.0061559095 -0.0069443863 0.029556358 -0.3161442 -0.03359625 -0.047292154 0.2876831 0.15665577
-0.13040285 -0.1020021 0.019161224 0.08800369 -0.009138218 -0.10806901 -0.07400404 0.052011788
-0.08398639 -0.10051952 0.07184772 0.2678219 -0.02281179 -0.17738852 -0.193037 0.39256063
0.15257736 -0.19982508 -0.17001392 0.13770804 0.052422892 0.002375453 -0.17968884 0.36739227
0.16459978 -0.19212781 0.10453985 0.19807832 0.09603124 -0.35217124 -0.10393305 0.33329412
-0.7045735 -0.1395021 0.21361153 -0.23159976 -0.09787851 0.088732354 -0.2776531 -0.03304962
0.02195658 -0.50838876 -0.12024899 0.2620883 0.0013723482 -0.20661317 -0.052057356 -0.07655591
-0.12840621 0.02897471 0.23319227 0.203906 -0.056462683 0.23255341 0.23278171 -0.25186205
-0.12167709 0.018399041 -0.31685004 -0.32691434 -0.04311379 0.054811724 0.053419244 -0.14273399
-0.16387907 0.09363962 -0.27708086 -0.04295249 0.2882522 -0.064781174 0.014173015 0.078449294
-0.06435637 0.007077175 -0.032264978 -0.04294974 0.0045810235 -0.114563756 0.059792124 0.08243665
-0.03321934 0.121026896 -0.385213 0.1411179 0.24011195 -0.109364785 -0.15879817 0.026855491
-0.0162446 0.1494746 -0.113075554 0.014742364 0.076099955 -0.18092255 0.018833252 0.15736683
-0.21701653 0.02262107 -0.14028148 0.056942865 0.21743742 -0.3931008 -0.03749049 0.36845168
-0.14709847 -0.10793314 0.051199324 0.058153182 -0.060993813 0.024214234 -0.28604716 -0.13743924
-0.05631718 -0.39203596 -0.11675369 -0.07382812 -0.18468934 0.008938724 -0.10097804 -0.0058439155
0.13147105 0.057772473 -0.04105766 -0.09826592 -0.07321562 -0.00829668 0.17036924 0.1515118
-0.005933232 -0.135435 0.020227538 -0.12106513 0.067295335 0.053566743 0.16816768 -0.05659606
0.016481755 -0.24627627 0.12614934 -0.13771695 -0.51457393 0.28539205 0.08000242 0.26396048
0.32199168 0.07783445 0.108189516 0.0014989227 0.027799582 0.055532012 -0.009981536 -0.090458095
0.09855687 0.009523638 -0.12318552 0.42481372 0.21274333 0.04785445 0.2790189 -0.15053737
0.17692417 0.09016332 -0.055336405 -0.086121224 -0.060685005 -0.10462417 0.14366549 -0.09390982
0.11532626 0.19264919 0.011183162 0.23573366 0.0012711389 -0.24392842 0.011716885 -0.2110322
00000000: 7aaa 643e 7d27 183e 9f10 823e d9b5 50bb
00000010: 7107 6abe 8698 2cbd d265 a1bd c36d d63d
00000020: cf53 f13d f8f1 a0bd ea5f 73be d4b1 b0be
00000030: c2b1 fabd f086 a2be 12f5 a0bd d55c 6d3e
00000040: b5f7 bd3e b2b9 173f bc7f df3d 3b62 973e
00000050: f390 923c c47a 293e ed4e 1fbf d54d 73be
00000060: a775 a8be d680 773d 8a98 5c3e f503 2abc
00000070: 9a74 bcbe b3d2 b7be b3a7 2dbe 23ee 5cbc
00000080: d7e8 893e d6d3 123d 0181 8e3e 05e3 e63c
00000090: 1134 873e 9daf b23d bdd5 e2bd bba1 60be
000000a0: 2d7e a6be 4107 883c 1180 02be c416 a93c
000000b0: 30e0 033e bb77 003e c3a5 dabc 8c1a 85bd
000000c0: 9486 68be 8b61 5dbe 7bff 5ebd 0722 7b3b
000000d0: 735b 363e 48e7 ae3c 618c 0f3e 8725 3f3e
000000e0: 2875 e13c 068c babd 0e4a 7cbe 2232 f0bd
000000f0: 2d52 273c 51e8 81be 59a5 7dbd 2231 20bd
00000100: 842f 5f3d f1b1 eebd f12a de3d 508b 983c
00000110: cfd5 7cbd ba7a 2bbd 8b32 913c 1e05 5abd
00000120: 83b7 c93b bc8d e3bb 2d20 f23c a7dd a1be
00000130: 399c 09bd 6bb5 41bd 334b 933e 5f6a 203e
00000140: 5388 05be 7ae6 d0bd 00f8 9c3c 473b b43d
00000150: 77b8 15bc 4953 ddbd 6e8f 97bd 500a 553d
00000160: 0e01 acbd 2edd cdbd e624 933d f41f 893e
00000170: cbdf babc 56a5 35be 7eab 45be b5fd c83e
00000180: 3d3d 1c3e f29e 4cbe 2118 2ebe 5603 0d3e
00000190: 63b9 563d 7dad 1b3b 5a00 38be d71a bc3e
000001a0: d88c 283e 27bd 44be fd18 d63d 0bd5 4a3e
000001b0: 07ac c43d ca4f b4be dada d4bd 87a5 aa3e
000001c0: ee5e 34bf a3d9 0ebe fbbc 5a3e 7d28 6dbe
000001d0: 8774 c8bd 4fb9 b53d 8c28 8ebe 0a5f 07bd
000001e0: 49de b33c c425 02bf 1a45 f6bd 7030 863e
000001f0: 5de0 b33a 6792 53be 183a 55bd 58c9 9cbd
00000200: eb7c 03be 5f5c ed3c f4c9 6e3e bccc 503e
00000210: 6a45 67bd 7b22 6e3e 545e 6e3e 10f4 80be
00000220: d731 f9bd 96b9 963c 2b3a a2be 5161 a7be
00000230: 1698 30bd 4282 603d 23ce 5a3d dc28 12be
00000240: eacf 27be 21c6 bf3d 8bdd 8dbe f3ee 2fbd
00000250: cb95 933e feab 84bd ef35 683c 06aa a03d
00000260: 46cd 83bd a6e7 e73b 4828 04bd 11ec 2fbd
00000270: 691c 963b 67a0 eabd 96e8 743d 8cd4 a83d
00000280: 0111 08bd f3dc f73d a33a c5be 3681 103e
00000290: e8df 753e a5fa dfbd fd9b 22be 0c00 dc3c
000002a0: 6513 85bc df0f 193e 2894 e7bd f589 713c
000002b0: 4bda 9b3d c343 39be 3148 9a3c c524 213e
000002c0: 9539 5ebe d24f b93c f3a5 0fbe ec3c 693d
000002d0: eaa7 5e3e 8244 c9be a18f 19bd b3a5 bc3e
000002e0: fba0 16be 0d0c ddbd 62b6 513d 0832 6e3d
000002f0: a6d4 79bd ee5c c63c c674 92be dfbc 0cbe
00000300: d8ac 66bd f0b8 c8be 8f1c efbd 3333 97bd
00000310: 341f 3dbe ba73 123c 93cd cebd 517e bfbb
00000320: 59a0 063e d4a2 6c3d 142c 28bd a53f c9bd
00000330: 12f2 95bd ccee 07bc 4675 2e3e e925 1b3e
00000340: 8f6b c2bb 79af 0abe 39b4 a53c fff0 f7bd
00000350: 23d2 893d cd68 5b3d 2634 2c3e 45d1 67bd
00000360: bf04 873c d92f 7cbe 4b2d 013e ac05 0dbe
00000370: 1ebb 03bf e81e 923e 4fd8 a33d d425 873e
00000380: 18dc a43e ab67 9f3d 7792 dd3d 8077 c43a
00000390: f3bb e33c 8975 633d 9989 23bc 1842 b9bd
000003a0: 2fd8 c93d 0809 1c3c b148 fcbd 2f81 d93e
000003b0: 63d9 593e 0703 443d 91db 8e3e 7826 1abe
000003c0: 9c2b 353e 8ca7 b83d 6da8 62bd 5360 b0bd
000003d0: d790 78bd 3245 d6bd 0c1d 133e cb53 c0bd
000003e0: 2d30 ec3d d445 453e 9539 373c 2a64 713e
000003f0: 589c a63a 5fc8 79be 2df8 3f3c d318 58be

norm2.weight f4 [10]
1.0433326 1.044897 1.1413509 1.0708781 0.8968202 1.1683235 1.1689274 1.081813
1.0452216 1.0636605
00000000: ec8b 853f 2fbf 853f c917 923f 8912 893f
00000010: 0296 653f a08b 953f 6a9f 953f d978 8a3f
00000020: d2c9 853f 0726 883f

norm2.bias f4 [10]
-0.2415334 0.015878133 0.34887186 -0.32236746 0.3713337 -0.1829912 -0.002766249 -0.44519773
0.16624601 -0.3323046
00000000: 8854 77be dc12 823c 559f b23e 590d a5be
00000010: 731f be3e 0c62 3bbe f549 35bb f5f0 e3be
00000020: 653c 2a3e d423 aabe

tns1.weight f4 [16, 10, 1, 1]
0.20901938 0.1879157 -0.2521613 0.37517372 -0.081902355 0.53164214 0.051626697 -0.095004804
-0.22645076 0.078485124 -0.23345172 0.013704406 0.11240406 0.022765215 -0.06857142 0.16964719
-0.050062172 -0.3842535 0.5157218 0.5000603 -0.11454869 -0.04342808 0.45889172 0.25004482
0.38961512 0.083569035 -0.13681692 0.26216015 -0.21492073 -0.060336266 0.7279535 -0.15298113
-0.31065607 -0.10817291 0.055687744 -0.21811524 -0.17821112 0.024243213 -0.06980571 0.134915
0.15156367 -0.34851217 -0.25258902 -0.33812457 0.22826445 -0.5659046 0.032799024 -0.05871869
-0.5731545 0.5021078 0.3210249 -0.033550277 0.43746954 -0.050546855 -0.32682756 0.4382308
0.119780615 0.3408983 0.23038504 0.08879013 -0.12873669 -0.27416787 -0.43748915 0.11691448
-0.22023506 0.2631585 -0.32464293 0.9113581 -0.6653945 -0.15232882 -0.020267896 -0.437508
0.117917836 0.59278435 -0.1410642 0.4865849 -0.26538965 0.078289255 0.25343582 0.26060072
0.004168982 0.11941411 0.18266754 0.47483703 -0.28369695 -0.21988672 0.9178707 0.101577535
-0.023072118 0.045706376 0.4138567 0.41219598 -0.30761713 -0.30536076 -0.23419885 -0.120317355
0.18203868 0.16717361 0.18679465 0.21247824 -0.11165036 -0.44130298 -0.35727742 -0.23860389
-0.19863603 0.34766084 0.24758147 -0.3935475 -0.46533877 0.21552122 0.27907646 -0.01996645
0.5457277 -0.20374355 -0.36257312 0.18381004 0.04528293 -0.37885696 -0.3247963 0.015581302
0.5857432 -0.2971375 -0.07866496 0.06890337 -0.20454425 0.5496887 0.33267394 -0.008009527
0.27390888 -0.4530554 0.33502522 -0.049601942 0.0974067 0.1730985 0.546574 0.22790007
0.29016972 -0.1492808 -0.21218815 0.71834344 -0.032928925 0.6113291 -0.48123318 -0.10750766
-0.39006004 0.23763743 0.017209683 -0.08714922 -0.6059311 -0.15178214 -0.15453394 -0.2690726
-0.4888964 0.67688626 0.18547906 -0.0024831973 -0.20489869 -0.22774072 -0.432732 -0.29825184
00000000: 2d09 563e f96c 403e 491b 81be c516 c03e
00000010: 6cbc a7bd b319 083f 8476 533d e191 c2bd
00000020: b5e2 67be cfbc a03d f80d 6fbe 7288 603c
00000030: 1a34 e63d 1e7e ba3c 2c6f 8cbd feb7 2d3e
00000040: fe0d 4dbd e0bc c4be 5806 043f f403 003f
00000050: 8198 eabd a4e1 31bd dbf3 ea3e e005 803e
00000060: a27b c73e 3e26 ab3d bc19 0cbe db39 863e
00000070: 2e14 5cbe 2923 77bd 295b 3a3f 16a7 1cbe
00000080: 500e 9fbe c289 ddbd d518 643d 9a59 5fbe
00000090: fa7c 36be b499 c63c 4cf6 8ebd 2827 0a3e
000000a0: 8233 1b3e 3070 b2be 5953 81be aa1e adbe
000000b0: 28be 693e 20df 10bf 4558 063d 0283 70bd
000000c0: 41ba 12bf 238a 003f 605d a43e 046c 09bd
000000d0: 02fc df3e 380a 4fbd f155 a7be ca5f e03e
000000e0: 8a4f f53d 398a ae3e 0eea 6b3e 9ad7 b53d
000000f0: 8dd3 03be bb5f 8cbe 94fe dfbe dc70 ef3d
00000100: 4d85 61be b6bc 863e 9937 a6be c44e 693f
00000110: 4b57 2abf 16fc 1bbe dc08 a6bc 0c01 e0be
00000120: e87e f13d b7c0 173f 2273 10be a821 f93e
00000130: 27e1 87be 1e56 a03d 57c2 813e 756d 853e
00000140: f59b 883b 638f f43d 330d 3b3e d71d f33e
00000150: ba40 91be fc29 61be 93f9 6a3f e207 d03d
00000160: bd01 bdbc 9c36 3b3d 06e5 d33e 5a0b d33e
00000170: fe7f 9dbe 3f58 9cbe d3d1 6fbe f268 f6bd
00000180: 5968 3a3e 8f2f 2b3e 1947 3f3e e593 593e
00000190: f2a8 e4bd 77f2 e1be 11ed b6be 9454 74be
000001a0: 3e67 4bbe 9a00 b23e ff85 7d3e 0f7f c9be
000001b0: e240 eebe 98b1 5c3e 1ce3 8e3e ae90 a3bc
000001c0: d0b4 0b3f 26a2 50be 2fa3 b9be b338 3c3e
000001d0: 987a 393d 8af9 c1be b34b a6be b848 7f3c
000001e0: 44f3 153f 6822 98be 181b a1bd 361d 8d3d
000001f0: 0c74 51be 66b8 0c3f 3d54 aa3e 643a 03bc
00000200: c93d 8c3e e1f6 e7be 6d88 ab3e 682b 4bbd
00000210: 2a7d c73d bc40 313e 46ec 0b3f a35e 693e
00000220: 2091 943e 11dd 18be da47 59be 5be5 373f
00000230: 7be0 06bd 1080 1c3f 3264 f6be fa2c dcbd
00000240: f3b5 c7be 3a57 733e 52fb 8c3c 4a7b b2bd
00000250: 4d1e 1bbf c76c 1bbe 253e 1ebe e2c3 89be
00000260: a150 fabe 6b48 2d3f 39ee 3d3e 23bd 22bb
00000270: f6d0 51be dd34 69be 0c8f ddbe 77b4 98be

conv3.weight f4 [24, 16, 3, 3]
0.06629768 0.069825694 -0.002802547 -0.024730327 0.14358193 0.1404534 -0.06359668 0.014126885
-0.023162922 0.0063815787 -0.12752488 -0.15950046 0.16317628 0.23166169 0.023614893 0.00061764766
0.09412963 0.16990596 -0.15535137 0.040630154 0.038461313 -0.062229495 0.109274104 -0.08966469
-0.045366965 -0.06782044 -0.03420152 0.015156341 0.106702626 -0.10069876 0.0930391 0.06825726
-0.22401921 0.13002677 0.062173136 -0.14587142 0.059606187 0.048803255 -0.011689058 0.19008164
0.01954361 -0.0027498729 0.052715927 0.122862615 -0.15186688 -0.14722678 0.042911556 0.089076124
0.007843745 0.20263885 0.07118159 0.018250683 -0.033275526 -0.04335854 -0.07748043 -0.10811561
-0.16041462 -0.16408035 -0.15018378 -0.16176584 -0.11566563 0.04136813 -0.071972236 -0.05272288
-0.14288741 -0.28690052 0.087212935 0.15297844 0.050755583 -0.031434588 0.15888241 0.2864502
-0.15035595 -0.17218107 -0.24534756 0.017395953 0.20470108 0.12660776 0.005434637 0.10001817
0.059064895 0.024341939 -0.031508848 -0.09537048 0.0047455267 0.16950056 0.024429116 -0.14006054
-0.022963999 -0.1768143 -0.030215211 -0.011443236 -0.023740917 0.020046867 0.034324102 0.17645177
-0.043603256 -0.03481453 0.11829492 -0.038425267 0.08790608 0.0881342 -0.033018153 0.18000808
-0.013080601 -0.09995156 -0.022660598 -0.14449748 0.02346519 0.035861794 0.1181765 0.15344517
0.2089695 0.06335157 -0.003271082 0.06561398 0.010641679 -0.11897655 0.1068351 -0.18912521
-0.0041601085 0.14866626 -0.069275655 -0.1439583 0.1103562 -0.119040765 0.18686795 -0.0005496444
-0.1204493 0.033396095 0.26995566 0.10495694 -0.09893285 0.027982196 0.13891117 -0.104171485
-0.07814896 -0.2043095 -0.030127324 -0.17127411 -0.16085942 0.13470082 0.10807149 -0.12959927
-0.15164839 -0.050285187 0.0108144 -0.060561597 0.007322393 0.015709233 -0.16303247 -0.17415532
-0.057252258 0.10118418 0.065540396 -0.012858122 0.10699369 0.044853684 -0.11128206 0.07075661
0.09965507 -0.15552631 0.0058627585 0.014566174 0.031274524 0.004731003 -0.05223161 0.09709084
-0.021156076 0.060205746 -0.025720833 0.029933747 0.026193943 0.04862729 0.10995854 0.057480764
-0.032626335 -0.03357753 -0.18359011 -0.20972984 0.12562251 0.052523434 -0.067824095 0.10995091
-0.28817013 -0.31412885 0.105668254 -0.11563605 -0.046113357 0.20471287 0.00068640127 0.04021835
0.021517169 0.19024202 0.08162117 0.08565385 0.077936284 -0.0047757784 0.21519996 0.12904829
0.06384669 0.08149592 -0.08590995 0.16465639 -0.109924495 -0.16281568 -0.024108175 0.082606286
-0.19407494 -0.029674111 -0.03806112 -0.10468149 -0.12618692 -0.0011676772 -0.073530704 -0.10772731
-0.26144743 -0.10046996 0.08584602 -0.09308207 -0.0655959 0.048316833 -0.03205797 -0.08547154
0.096774936 -0.044955686 0.06205415 0.19205806 0.0040432084 0.19706596 0.15448387 0.05810556
0.085086256 -0.058877908 -0.0052509913 0.006366791 0.12598476 0.0390049 -0.04723554 0.039351027
0.023932965 -0.1259241 0.10999319 -0.07649618 0.15264134 0.23629165 -0.051229298 0.26662666
0.10245803 -0.03821365 0.050395478 -0.09113441 -0.011013896 -0.001505756 0.12849657 0.019701522
00000000: 14c7 873d c600 8f3d f0aa 37bb 4197 cabc
00000010: 2407 133e 04d3 0f3e fa3e 82bd 7374 673c
00000020: 2bc0 bdbc 901c d13b e295 02be 1754 23be
00000030: af17 273e b938 6d3e 0574 c13c a2e9 213a
00000040: 09c7 c03d d4fb 2d3e 6e14 1fbe ce6b 263d
00000050: 9c89 1d3d 5be4 7ebd 1acb df3d 1fa2 b7bd
00000060: b6d2 39bd 71e5 8abd e516 0cbd 4d52 783c
00000070: e886 da3d 273b cebd 498b be3d 76ca 8b3d
00000080: 4b65 65be bd25 053e 42a9 7e3d 515f 15be
00000090: 9e25 743d ece5 473d 7683 3fbc c3a4 423e
000000a0: ec19 a03c 3637 34bb a8ec 573d 659f fb3d
000000b0: fe82 1bbe 9ec2 16be 07c4 2f3d 8b6d b63d
000000c0: 0d83 003c 8f80 4f3e a7c7 913d 7582 953c
000000d0: eb4b 08bd b998 31bd 0fae 9ebd b86b ddbd
000000e0: bb43 24be ae04 28be c7c9 19be f2a5 25be
000000f0: 1ae2 ecbd a171 293d 2e66 93bd f2f3 57bd
00000100: 1451 12be a0e4 92be b29c b23d 61a6 1c3e
00000110: 16e5 4f3d 8ec1 00bd 12b2 223e 9aa9 923e
00000120: e9f6 19be 3c50 30be 643c 7bbe f581 8e3c
00000130: 299d 513e 77a5 013e 0a15 b23b 54d6 cc3d
00000140: 08ee 713d bf68 c73c 6c0f 01bd 9951 c3bd
00000150: 5d80 9b3b 8e91 2d3e 921f c83c 086c 0fbe
00000160: ff1e bcbc cf0e 35be e485 f7bc 697c 3bbc
00000170: 507c c2bc 5439 a43c 6e97 0c3d c6af 343e
00000180: 5499 32bd ae99 0ebd 9b44 f23d d063 1dbd
00000190: 1a08 b43d b47f b43d 0b3e 07bd 0a54 383e
000001a0: 0450 56bc 67b3 ccbd b8a2 b9bc 26f7 13be
000001b0: 123a c03c d1e3 123d 8506 f23d bb20 1d3e
000001c0: 1afc 553e 78be 813d a65f 56bb 9f60 863d
000001d0: 705a 2e3c faa9 f3bd 5ccc da3d 0aaa 41be
000001e0: 8551 88bb f83b 183e 65e0 8dbd ce69 13be
000001f0: 6e02 e23d a5cb f3bd 505a 3f3e 0316 10ba
00000200: 1fae f6bd 58ca 083d a137 8a3e aaf3 d63d
00000210: 4e9d cabd eb3a e53c bb3e 0e3e dc57 d5bd
00000220: 900c a0bd 8236 51be 94cd f6bc 7b62 2fbe
00000230: 55b8 24be 03ef 093e 9654 dd3d acb5 04be
00000240: b749 1bbe d7f7 4dbd e22e 313c 700f 78bd
00000250: aff0 ef3b a6b0 803c fcf1 26be c655 32be
00000260: 5881 6abd a739 cf3d 0b3a 863d dfaa 52bc
00000270: 821f db3d 7fb8 373d d9e7 e3bd d7e8 903d
00000280: f517 cc3d 4a42 1fbe 621c c03b f6a6 6e3c
00000290: b719 003d 8806 9b3b d0f0 55bd 90d7 c63d
000002a0: 824f adbc 4d9a 763d 7fb4 d2bc 9e37 f53c
000002b0: ae94 d63c 692d 473d f131 e13d f370 6b3d
000002c0: 31a3 05bd 9888 09bd 0cff 3bbe 6bc3 56be
000002d0: 30a3 003e d022 573d 5ce7 8abd f12d e13d
000002e0: 098b 93be 7fd5 a0be 9968 d83d 98d2 ecbd
000002f0: 5ce1 3cbd 40a0 513e 9cef 333a ffbb 243d
00000300: c644 b03c cece 423e 0029 a73d 496b af3d
00000310: 0f9d 9f3d 227e 9cbb 615d 5c3e 3c25 043e
00000320: 0ec2 823d 55e7 a63d 8ef1 afbd af9b 283e
00000330: 1820 e1bd 27b9 26be 827e c5bc 7c2d a93d
00000340: 95bb 46be 1f17 f3bc fae5 1bbd 4063 d6bd
00000350: 2537 01be bf0c 99ba 4497 96bd 23a0 dcbd
00000360: 70dc 85be 32c3 cdbd 0ad0 af3d d0a1 bebd
00000370: 2557 86bd dfe7 453d 384f 03bd b40b afbd
00000380: f031 c63d 7423 38bd 7e2c 7e3d deaa 443e
00000390: e47c 843b a9cb 493e 0531 1e3e 1800 6e3d
000003a0: b441 ae3d f629 71bd 8210 acbb 84a0 d03b
000003b0: 2602 013e 9ac3 1f3d 0e7a 41bd 8b2e 213d
000003c0: 110f c43c 3ff2 00be 1c44 e13d 07aa 9cbd
000003d0: 034e 1c3e 70f6 713e d0d5 51bd 4a83 883e
000003e0: 84d5 d13d eb85 1cbd 7d6b 4e3d ada4 babd
000003f0: a173 34bc ca5c c5ba 9b94 033e 1665 a13c

norm3.weight f4 [24]
0.9949466 1.0157083 0.9411622 0.98110807 1.0794446 1.0521803 0.9238087 0.96373653
1.0159435 0.9280811 1.2177055 1.138086 0.83522344 1.0897208 0.9457482 1.1187671
1.1507185 0.94499826 0.98341435 1.0411694 1.0790083 1.002548 1.1198165 0.9421655
00000000: d2b4 7e3f bb02 823f 02f0 703f e629 7b3f
00000010: 3e2b 8a3f d8ad 863f ba7e 6c3f 70b7 763f
00000020: 700a 823f b996 6d3f c6dd 9b3f cdac 913f
00000030: 34d1 553f f97b 8b3f 8e1c 723f c333 8f3f
00000040: be4a 933f 68eb 713f 0bc1 7b3f 0a45 853f
00000050: f21c 8a3f 7e53 803f 2656 8f3f c231 713f

norm3.bias f4 [24]
-0.088547 -0.38387325 0.18593185 -0.20556231 -0.04629181 0.1284566 -0.23844032 0.063161224
-0.0756717 0.0673914 0.34961152 0.0045116222 -0.44524458 0.2981332 -0.30982748 0.16458355
0.030410113 -0.011623836 -0.07159413 0.24252166 0.24532163 -0.01741112 0.15555088 -0.16209652
00000000: 2158 b5bd 098b c4be eb64 3e3e ed7e 52be
00000010: 7b9c 3dbd 208a 033e b329 74be ac5a 813d
00000020: c4f9 9abd 8104 8a3d 4800 b33e 3bd6 933b
00000030: 19f7 e3be eaa4 983e b5a1 9ebe 9788 283e
00000040: a11e f93c e771 3ebc f19f 92bd 9957 783e
00000050: 9835 7b3e c4a1 8ebc bb48 1f3e a1fc 25be

conv4.weight f4 [16, 24, 3, 3]
0.024423834 -0.05597175 0.044113692 0.11390269 -0.13337652 -0.16294183 -0.06133546 -0.2063294
-0.14501491 0.033172537 -0.085965864 -0.17573544 -0.051117763 -0.097359225 -0.07114277 -0.11237159
-0.079245165 -0.02489824 0.044262093 -0.061833885 -0.15962073 0.058107153 -0.017965483 -0.27266786
0.030641794 0.07613634 -0.23113431 -0.034442663 -0.038689442 -0.144612 0.08280845 -0.1495424
-0.13049184 0.0839584 0.047028232 -0.030502731 -0.01740085 -0.006325244 -0.024522483 -0.12150059
-0.18756612 0.0052816956 -0.07434281 -0.09538357 -0.026377765 -0.04214566 0.092318594 0.06638446
0.041576162 0.07079438 -0.0119842235 0.04844476 0.07866048 0.11197516 -0.1343116 -0.14125977
-0.052824605 -0.31538138 -0.08737666 0.05399779 -0.042855896 0.017228354 0.038190927 0.17911544
0.11436722 -0.1299804 0.16283531 0.14670208 -0.045448877 -0.044223316 -0.010917434 0.06782452
0.090255275 0.12363787 0.0952917 -0.06317212 -0.010699752 0.19268899 -0.17419218 -0.031550802
0.038881578 0.11912539 0.018415589 0.13615176 -0.13676472 0.18187653 0.09811398 -0.049429446
0.07932111 0.13512619 -0.18993662 -0.15206921 -0.10545113 0.043840148 -0.009892954 -0.1623938
0.23888318 0.22004314 -0.10919611 -0.13427995 -0.10299219 0.20120198 -0.17138435 -0.20478415
-0.120063506 -0.19305739 -0.046820678 0.05089861 -0.011066779 0.05918071 0.12908389 -0.15690169
-0.0719395 0.13241468 -0.084456205 -0.11283972 0.094792664 -0.053369813 -0.112495884 -0.12461312
-0.14136313 -0.06609168 -0.026261047 0.0718887 0.10614258 0.06393311 -0.17741987 0.037928145
0.026177503 -0.16941984 -0.13869561 -0.097257495 -0.02876557 0.040077828 -0.062321693 0.06467932
0.046844117 0.038344964 -0.01829555 -0.18299326 0.07804552 -0.16230887 -0.17408994 -0.03785931
0.10978777 -0.07900673 0.10448043 -0.08305202 -0.051221102 -0.11384474 -0.032371692 -0.03348162
-0.03073397 -0.043479722 0.080440715 0.051141884 -0.19107528 -0.15772031 0.17542922 -0.061051354
-0.18607119 -0.05220262 0.003805953 0.032689523 0.036490325 -0.18014663 -0.14433205 0.1389986
-0.05092152 -0.018034337 0.059866007 -0.08786639 -0.07997242 -0.07617222 -0.04958991 -0.20328136
-0.0234869 0.073549226 0.03275125 0.06094878 -0.06606136 0.016307557 0.021978714 0.011597622
0.114301234 0.0077407532 0.00028081704 0.10940401 0.055032093 -0.12735167 0.12951106 0.15161107
0.02527594 -0.019274337 0.016951146 0.1102903 -0.08923782 -0.20137219 0.061903335 0.026752753
-0.16301288 -0.08669645 -0.10680643 -0.15941885 -0.0019240344 0.019425904 -0.15343063 -0.073347375
-0.027554078 -0.13421682 -0.10128682 -0.036417805 -0.085149005 -0.0077916537 -0.09614909 -0.043024432
-0.1455735 -0.22608854 -0.13824905 0.12484261 -0.009525174 -0.04176739 0.013146724 0.14608844
-0.053903658 -0.08983352 -0.14423175 0.07877175 -0.19157344 0.015339734 0.07116013 0.06815802
-0.13253416 -0.260234 -0.011731816 0.04825797 0.0060571767 0.037050933 -0.005701418 0.11903416
0.04239912 0.09268908 0.05871274 0.1028563 0.10577433 -0.02635218 0.10723428 0.09066773
0.082903445 -0.010232151 -0.13303196 0.021698993 -0.045641076 0.020085495 0.12421128 -0.17318755
00000000: 7e14 c83c a242 65bd 8fb0 343d d045 e93d
00000010: db93 08be 39da 26be e43a 7bbd 0448 53be
00000020: ca7e 14be eddf 073d df0e b0bd fef3 33be
00000030: dc60 51bd 4664 c7bd 4db3 91bd 1423 e6bd
00000040: 4a4b a2bd 65f7 cbbc 2b4c 353d 8745 7dbd
00000050: 9e73 23be c401 6e3d 592c 93bc 1f9b 8bbe
00000060: 8004 fb3c 5fed 9b3d 79ae 6cbe c013 0dbd
00000070: d278 1ebd 2b15 14be 7a97 a93d a521 19be
00000080: a79f 05be 62f2 ab3d ada0 403d dde0 f9bc
00000090: 3a8c 8ebc fe43 cfbb 60e3 c8bc 4dd5 f8bd
000000a0: 5511 40be 1312 ad3b 0b41 98bd 7658 c3bd
000000b0: 2f16 d8bc eda0 2cbd 8811 bd3d 93f4 873d
000000c0: c44b 2a3d a5fc 903d 7a59 44bc 036e 463d
000000d0: bf18 a13d 3c53 e53d fb88 09be 67a6 10be
000000e0: 9d5e 58bd ab79 a1be 89f2 b2bd c92c 5d3d
000000f0: aa89 2fbd 7a22 8d3c 176e 1c3d 0a6a 373e
00000100: 5c39 ea3d 9519 05be 4dbe 263e 1239 163e
00000110: 9a28 3abd 8223 35bd 09df 32bc 95e7 8a3d
00000120: c2d7 b83d da35 fd3d 4b28 c33d 6260 81bd
00000130: 034e 2fbc 4350 453e 6f5f 32be 6a3b 01bd
00000140: 4a42 1f3d 03f8 f33d 4adc 963c 5e6b 0b3e
00000150: 0d0c 0cbe d73d 3a3e fbef c83d 8876 4abd
00000160: 1b73 a23d 855e 0a3e bf7e 42be 08b8 1bbe
00000170: c3f6 d7bd ba91 333d 0e16 22bc 8f4a 26be
00000180: cb9d 743e fd52 613e 36a2 dfbd af80 09be
00000190: 92ed d2bd e407 4e3e 617f 2fbe f0b2 51be
000001a0: dbe3 f5bd d6b0 45be 0ac7 3fbd 107b 503d
000001b0: 6f51 35bc 7967 723d 912e 043e d6aa 20be
000001c0: 0455 93bd b797 073e 60f7 acbd 8318 e7bd
000001d0: a822 c23d 4e9a 5abd 3e64 e6bd 2a35 ffbd
000001e0: 7fc1 10be 135b 87bd 6821 d7bc 623a 933d
000001f0: 4861 d93d 5def 823d 8ead 35be 8b5a 1b3d
00000200: 3472 d63c 657c 2dbe 3906 0ebe f02e c7bd
00000210: c6a5 ebbc a628 243d 0845 7fbd 9776 843d
00000220: 9edf 3f3d 9c0f 1d3d 8de0 95bc 9662 3bbe
00000230: 54d6 9f3d 4c34 26be a244 32be 5d12 1bbd
00000240: 69d8 e03d 48ce a1bd d6f9 d53d 2d17 aabd
00000250: 38cd 51bd 6e27 e9bd 2e98 04bd 0624 09bd
00000260: cfc5 fbbc cb17 32bd 1abe a43d 277a 513d
00000270: 3da9 43be 6f81 21be b8a3 333e fc10 7abd
00000280: 7289 3ebe 6ad2 55bd 4c6d 793b 73e5 053d
00000290: e176 153d 5c78 38be c8cb 13be a655 0e3e
000002a0: 1593 50bd bfbc 93bc 0f36 753d 4bf3 b3bd
000002b0: 95c8 a3bd 2e00 9cbd ca1e 4bbd fd28 50be
000002c0: 9967 c0bc faa0 963d 2d26 063d 6ea5 793d
000002d0: 2e4b 87bd 6d97 853c b40c b43c f403 3e3c
000002e0: c416 ea3d 25a6 fd3b a03a 9339 360f e03d
000002f0: 5569 613d 7a68 02be 8c9e 043e ef3f 1b3e
00000300: 7d0f cf3c 37e5 9dbc 21dd 8a3c e1df e13d
00000310: 51c2 b6bd 8334 4ebe 5a8e 7d3d 9728 db3c
00000320: d9ec 26be e98d b1bd 54bd dabd b23e 23be
00000330: e22f fcba 1323 9f3c eb1c 1dbe 2637 96bd
00000340: 17b9 e1bc 2270 09be 776f cfbd d62a 15bd
00000350: 9a62 aebd 2151 ffbb d0e9 c4bd 633a 30bd
00000360: 3811 15be c183 67be 2991 0dbe 7bad ff3d
00000370: 7a0f 1cbc 4814 2bbd 5b65 573c 3598 153e
00000380: 15ca 5cbd a3fa b7bd 7db1 13be 1553 a13d
00000390: d42b 44be 8253 7b3c 67bc 913d 6f96 8b3d
000003a0: 09b7 07be 643d 85be ce36 40bc 26aa 453d
000003b0: 487b c63b b8c2 173d f6d2 babb 2fc8 f33d
000003c0: b3aa 2d3d c6d3 bd3d c57c 703d 53a6 d23d
000003d0: 36a0 d83d 87e0 d7bc a59d db3d 01b0 b93d
000003e0: 48c9 a93d c0a4 27bc 8839 08be 16c2 b13c
000003f0: 23f2 3abd 568a a43c 7c62 fe3d 1458 31be

norm4.weight f4 [16]
1.1387854 1.0890876 1.0085056 1.099938 1.157757 1.1154916 1.055268 0.9418102
1.0906413 1.0266994 1.0460654 0.87319857 1.0843993 1.1474092 1.0981057 1.0893434
00000000: b8c3 913f 3967 8b3f b616 813f c5ca 8c3f
00000010: 6231 943f 6ec8 8e3f 0613 873f 791a 713f
00000020: 229a 8b3f e36a 833f 79e5 853f f189 5f3f
00000030: 99cd 8a3f 4ede 923f ba8e 8c3f 9b6f 8b3f

norm4.bias f4 [16]
-0.017761458 0.08526692 -0.1078164 0.20289005 -0.19065513 0.039952174 -0.027402716 -0.1622035
0.03684098 -0.09725669 -0.31726465 -0.29694247 -0.25775865 0.06267695 0.026442848 0.01403165
00000000: 7a80 91bc 6ca0 ae3d d8ce dcbd 69c2 4f3e
00000010: 193b 43be e4a4 233d a97b e0bc ad18 26be
00000020: 91e6 163d 842e c7bd 8370 a2be d808 98be
00000030: f1f8 83be c65c 803d ac9e d83c 01e5 653c

conv5.weight f4 [32, 16, 3, 3]
0.17942856 0.14897884 0.10259778 0.055543866 0.07093243 0.028426152 0.0647098 0.014119298
-0.030937346 -0.020149352 -0.0019076623 -0.024326898 0.06337973 -0.014557532 0.06710179 0.11804765
-0.071951024 -0.036774654 0.14315042 0.17849247 -0.006833117 0.15045437 0.062250648 -0.043954633
0.20215277 -0.00985972 -0.04242018 0.012135727 0.016607793 -0.12432763 -0.061831012 -0.11328865
-0.04814472 -0.09139402 -0.018565517 -0.025839658 0.1506626 -0.025422879 -0.07544274 0.028569588
-0.17351368 -0.024986934 0.14873306 -0.107630454 -0.0033286344 -0.0658203 0.14302757 0.09935002
-0.026190124 -0.07048835 -0.005476505 -0.008599354 0.105723426 0.1145912 0.05785908 0.075745
0.016749447 0.05524096 -0.024931997 -0.037962947 0.06716137 -0.14064257 0.051594228 0.0681161
0.022496896 -0.06285847 0.12453221 -0.057041626 -0.0602779 0.19065712 -0.0019725896 -0.02599828
0.018435802 0.023055898 0.0034143208 -0.10177631 0.044631135 -0.03762903 0.103350826 0.20379072
-0.009748833 -0.011607742 -0.00703278 -0.105288334 -0.043706484 -0.17514244 -0.022448681 0.0619162
0.006421066 -0.05971126 0.17502101 0.0024438307 -0.11221079 0.16423526 -0.1013788 -0.08469128
0.0991189 -0.02261444 -0.03999712 0.11817984 -0.012784415 -0.09713296 -0.11737123 -0.09896771
-0.16620925 -0.055169076 -0.21572214 -0.05050841 0.0564008 0.022216378 0.073374264 0.103711836
0.040752366 -0.06660434 0.1951899 -0.04995643 -0.07405497 0.10313485 -0.099558175 -0.055629887
0.08052387 0.020931648 -0.010211341 -0.0180074 0.0005079001 0.059337247 0.0018973371 -0.09092741
-0.108060874 -0.036960058 -0.061019793 -0.10826094 -0.008972554 -0.09203837 -0.16272296 0.027218403
-0.07095848 -0.12967426 0.10915302 -0.09012654 -0.06946544 0.069880605 -0.11729042 -0.18762791
0.07530177 -0.029649686 -0.004149629 0.01622668 -0.081617475 -0.12587856 -0.043292273 -0.006465826
-0.08721842 0.11931081 -0.06969889 0.014585156 0.12439586 0.06724692 0.0532215 0.07844588
0.045051206 0.0011071424 0.056030594 -0.051470775 0.016697643 -0.05485987 0.0075754765 -0.08390229
-0.104434796 0.06186798 0.018865535 -0.061200052 0.092345 -0.007126776 0.14752752 -0.0851294
-0.1456947 -0.0007261121 -0.087638535 0.027482761 0.14929588 0.0907648 0.03947444 0.061285358
-0.03714471 0.037126537 -0.092785075 -0.018769914 0.02144681 -0.10210331 0.1074416 0.089462146
-0.09083188 -0.12848163 -0.12987426 -0.104007214 -0.10548539 -0.17215297 0.12903671 0.102909476
0.006914404 0.15669061 0.12516625 0.003212302 0.05225141 0.021955315 -0.09506254 0.024753645
0.08276243 -0.060846046 0.040795676 -0.10745422 -0.1427188 0.021038074 -0.16206114 -0.15672249
0.011428169 0.014164992 0.022141298 -0.0060473536 0.006899596 0.17000328 -0.09060644 -0.0641709
-0.0572454 0.11081846 -0.0980955 0.06816635 0.01435554 0.04612294 0.09493204 0.07101997
0.1692719 0.02848707 0.005146282 0.14114936 0.11746433 0.020236362 0.09988673 0.092930555
-0.074384525 -0.10939207 -0.012310589 0.123811424 0.15622534 0.11001851 -0.066991225 -0.18067664
-0.25617644 -0.15614891 -0.22125643 -0.33283976 0.05768635 0.18980893 0.12155415 -0.025358515
00000000: 1fbc 373e e98d 183e c91e d23d f781 633d
00000010: 0645 913d f6dd e83c 9286 843d a154 673c
00000020: 5170 fdbc 4110 a5bc 860a faba 3449 c7bc
00000030: 3bcd 813d b782 6ebc aa6c 893d f7c2 f13d
00000040: 0f5b 93bd 05a1 16bd 0696 123e bbc6 363e
00000050: 57e8 dfbb b610 1a3e 89fa 7e3d c609 34bd
00000060: 2301 4f3e aa8a 21bc c8c0 2dbd eed4 463c
00000070: 110d 883c 7c9f febd 8442 7dbd e103 e8bd
00000080: 6633 45bd ca2c bbbd b616 98bc b1ad d3bc
00000090: 4c47 1a3e a443 d0bc b981 9abd c50a ea3c
000000a0: 92ad 31be 66b1 ccbc 7b4d 183e 5b6d dcbd
000000b0: 3825 5abb cbcc 86bd d275 123e 0678 cb3d
000000c0: ac8c d6bc 325c 90bd 4174 b3bb 4ee4 0cbc
000000d0: 8685 d83d cbae ea3d a5fd 6c3d 3220 9b3d
000000e0: 2336 893c 5844 623d 303e ccbc 097f 1bbd
000000f0: e68b 893d 9b04 10be 7854 533d 7480 8b3d
00000100: 694b b83c f1bb 80bd be0a ff3d 7ba4 69bd
00000110: f6e5 76bd 9f3b 433e 9046 01bb 58fa d4bc
00000120: ae06 973c b9df bc3c ccc2 5f3b 1970 d0bd
00000130: 23cf 363d e620 1abd 99a9 d33d 84ae 503e
00000140: 92b9 1fbc 662e 3ebc 3c73 e6bb 69a1 d7bd
00000150: 9205 33bd 8a58 33be 4ce6 b7bc d79b 7d3d
00000160: ce67 d23b cb93 74bd b538 333e ad28 203b
00000170: c5ce e5bd 4a2d 283e b09f cfbd 9f72 adbd
00000180: dafe ca3d eb41 b9bc 05d4 23bd 4608 f23d
00000190: b975 51bc a5ed c6bd 5460 f0bd 95af cabd
000001a0: c232 2abe f8f8 61bd 44e6 5cbe e8e1 4ebd
000001b0: 8604 673d 1fff b53c 3f45 963d df66 d43d
000001c0: f4eb 263d db67 88bd dcdf 473e 1d9f 4cbd
000001d0: 22aa 97bd 5d38 d33d 28e5 cbbd 2adc 63bd
000001e0: b3e9 a43d d978 ab3c 784d 27bc 4184 93bc
000001f0: 9924 053a 9d0b 733d 12b0 f83a 2638 babd
00000200: 054f ddbd 6e63 17bd e4ef 79bd e9b7 ddbd
00000210: 9e01 13bc 9d7e bcbd d9a0 26be 21f9 de3c
00000220: ae52 91bd 54c9 04be 9e8b df3d 4394 b8bd
00000230: e643 8ebd 901d 8f3d f635 f0bd 8821 40be
00000240: d037 9a3d e6e3 f2bc 9cf9 87bb d0ed 843c
00000250: 1027 a7bd 4fe6 00be 3d53 31bd 48df d3bb
00000260: 929f b2bd 3a59 f43d 4bbe 8ebd 94f6 6e3c
00000270: 42c3 fe3d c1b8 893d cafe 593d 3ca8 a03d
00000280: 9d87 383d 891d 913a 5680 653d 05d3 52bd
00000290: 7fc9 883c beb4 60bd b43b f83b f7d4 abbd
000002a0: e9e1 d5bd 4769 7d3d e58b 9a3c e8ac 7abd
000002b0: 601f bd3d bb87 e9bb 7411 173e 5358 aebd
000002c0: fe30 15be 8f58 3eba d57b b3bd 8723 e13c
000002d0: 05e1 183e e5e2 b93d f3af 213d 5b06 7b3d
000002e0: 0d25 18bd ff11 183d 1a06 bebd 5dc3 99bc
000002f0: 38b1 af3c 8a1b d1bd 570a dc3d ee37 b73d
00000300: 1106 babd b090 03be c2fd 04be bc01 d5bd
00000310: b908 d8bd de48 30be 3322 043e 34c2 d23d
00000320: 3a92 e23b 8173 203e 952b 003e 7c85 523b
00000330: 9305 563d a2db b33c 26b0 c2bd 28c8 ca3c
00000340: 597f a93d b439 79bd 5e19 273d f510 dcbd
00000350: e124 12be 0a58 ac3c 5bf3 25be dc7b 20be
00000360: 373d 3b3c 4814 683c ab61 b53c e128 c6bb
00000370: 0216 e23b 5715 2e3e df8f b9bd 086c 83bd
00000380: 277a 6abd caf4 e23d 4be6 c8bd cd9a 8b3d
00000390: 8033 6b3c 68eb 3c3d bb6b c23d eb72 913d
000003a0: 9d55 2d3e b75d e93c 24a2 a83b 7589 103e
000003b0: 2391 f03d bac6 a53c 6a91 cc3d 6052 be3d
000003c0: ea56 98bd f308 e0bd 5ab2 49bc d890 fd3d
000003d0: 89f9 1f3e 6251 e13d b232 89bd 4c03 39be
000003e0: 8f29 83be 80e5 1fbe 0c91 62be f969 aabe
000003f0: 8648 6c3d 465d 423e 62f1 f83d a9bc cfbc

norm5.weight f4 [32]
1.0188683 1.0413847 1.0620716 1.0018301 1.0399896 1.0464863 1.0740292 1.0507624
1.0110323 1.0274297 1.0315267 1.0444999 0.99896395 0.9740943 1.0403881 1.0051787
0.8289845 0.9413964 1.0480866 0.9456412 1.0366864 1.0883079 1.0615613 1.0268114
1.0854188 0.9793029 1.0124384 1.0104351 1.0030546 0.9818867 0.90621203 1.0212989
00000000: 476a 823f 184c 853f f6f1 873f f83b 803f
00000010: 611e 853f 43f3 853f ca79 893f 627f 863f
00000020: 8269 813f d182 833f 1109 843f 2cb2 853f
00000030: 1abc 7f3f 3e5e 793f 702b 853f b2a9 803f
00000040: 5438 543f 5bff 703f b427 863f 8b15 723f
00000050: 24b2 843f ac4d 8b3f 3ee1 873f 8e6e 833f
00000060: 01ef 8a3f 98b3 7a3f 9597 813f f055 813f
00000070: 1864 803f ed5c 7b3f 83fd 673f ecb9 823f

norm5.bias f4 [32]
-0.09384356 -0.13741246 -0.2722879 0.014593323 0.11839659 0.0889799 -0.22234565 -0.23701987
-0.29996118 -0.22735524 0.096925095 -0.15218516 0.0053137783 0.15215723 -0.18782987 -0.17333102
0.39378768 0.22381683 -0.29322183 0.18653646 0.1657202 0.057419308 -0.15111041 0.0042483574
-0.032507017 -0.062692106 -0.091045246 -0.1282653 -0.0013309671 0.22481945 0.24215603 -0.122533575
00000000: 0d31 c0bd dab5 0cbe 5269 8bbe d518 6f3c
00000010: e979 f23d 183b b63d 94ae 63be 56b5 72be
00000020: 8394 99be d0cf 68be aa80 c63d 6dd6 1bbe
00000030: 341f ae3b 1bcf 1b3e 7956 40be b07d 31be
00000040: 8a9e c93e 3d30 653e 2c21 96be 6a03 3f3e
00000050: 8eb2 293e 8230 6b3d b0bc 1abe ce35 8b3b
00000060: 1426 05bd b864 80bd ee75 babd fb57 03be
00000070: d873 aeba 1237 663e c0f7 773e e2f2 fabd

tns2.weight f4 [16, 32, 1, 1]
0.24412654 0.19758433 0.1166858 -0.4022742 0.019525008 0.015664728 0.2746368 -0.01239613
0.54743856 0.016416667 0.07385805 -0.06650191 -0.27112997 0.21663147 -0.19868092 -0.14760385
-0.22661385 -0.0446453 -0.1443121 -0.354846 -0.15130702 -0.11469873 -0.15840824 -0.020222692
-0.13061914 -0.03573895 0.12880105 -0.086599626 -0.23349537 -0.09879662 0.27046522 0.09725833
0.06448999 -0.191791 -0.042637788 -0.3196509 -0.5178017 -0.15871522 -0.17950179 0.25671157
-0.106148995 -0.100480564 -0.042491738 -0.10267254 0.21876048 -0.121627815 0.02456013 0.035519924
-0.15402582 -0.27762163 0.3587365 -0.05684663 -0.30009717 0.010730252 -0.16494314 -0.03819714
0.2624369 -0.12414742 -0.32773492 -0.17721204 -0.27414075 0.30180836 -0.2765834 0.20982382
0.041180264 0.4643165 -0.0131813735 -0.24104582 -0.048835803 -0.36368746 -0.027599957 0.17329407
-0.10420259 0.070042364 -0.2756427 0.04305366 0.05641932 -0.009578966 0.062414505 0.020379085
0.082134195 -0.2501269 0.20463423 0.05811871 -0.15374225 -0.19996671 0.5788518 -0.0025825999
0.04683714 0.37144428 0.26752388 0.17667869 -0.0028888783 -0.10075675 -0.1482497 -0.060811087
-0.24175668 -0.19854367 0.07594526 -0.0052889297 -0.5006956 0.1648685 0.08509759 0.03693352
-0.01884023 0.22515567 -0.0024366197 -0.17039026 -0.17559732 -0.32973874 0.310934 0.030364133
-0.22015412 0.11225607 0.002579637 -0.24719736 -0.2264447 -0.13792308 -0.018888962 0.16366126
-0.16910788 0.16070238 -0.019409882 -0.10844696 -0.009987385 -0.38558292 0.10555373 -0.27542335
0.35802364 0.083786555 0.045390684 0.059221145 -0.332441 -0.076068975 -0.06293493 -0.14029689
0.27974993 0.31248313 0.14139426 0.020995423 0.056248542 -0.15531723 -0.20401031 0.23810329
-0.24883185 -0.043835595 -0.107798226 -0.070955515 -0.13742585 0.28115088 -0.043456223 -0.28068873
0.15636808 0.27467567 0.0012340263 0.032611955 -0.3533346 -0.039841875 -0.29695088 -0.20854765
-0.15321936 0.29364294 -0.14952375 -0.13929181 -0.2279134 0.29121315 0.14056389 0.50332767
0.086996876 0.030376134 -0.14572279 0.40463576 -0.07494969 -0.1859136 -0.13075586 0.040458087
-0.16017911 -0.097609825 -0.016197596 -0.16446784 -0.24995399 -0.1898871 0.04265069 -0.15003066
-0.103999995 -0.06922955 -0.14536068 0.30775627 -0.09738 -0.15065752 -0.3532103 0.090427615
0.124669984 -0.1920406 0.4666176 -0.16040486 -0.20164572 -0.31040874 0.19124733 0.016613167
-0.18676887 -0.027935127 0.38306582 0.34803653 -0.09342787 -0.37956494 0.21204482 -0.3202233
-0.047326233 -0.3324639 -0.15583315 -0.24820414 0.23298301 0.2054608 0.41928124 -0.0068921046
0.015244544 0.06786422 -0.05358355 0.009924836 -0.16786076 -0.005820059 -0.015450784 0.19519101
0.19464703 0.08286939 0.32653555 0.11373758 0.24201295 -0.002535981 -0.012684352 -0.14617567
0.026325045 0.1274154 -0.092388816 0.38959146 -0.14993328 -0.02278717 0.19820768 0.044094954
-0.21515785 -0.07357619 0.20964335 0.08096696 -0.2911681 -0.24146822 -0.015278236 -0.03696726
0.41063747 -0.055633593 0.16187492 0.45989102 0.10600826 -0.30154967 -0.065732814 -0.22250773
00000000: 4ffc 793e 8c53 4a3e f7f8 ee3d e2f6 cdbe
00000010: e9f2 9f3c 5153 803c 329d 8c3e 2319 4bbc
00000020: ef24 0c3f 3f7c 863c e442 973d 2732 88bd
00000030: 8cd1 8abe a4d4 5d3e 0373 4bbe 7725 17be
00000040: 760d 68be fddd 36bd 8dc6 13be 60ae b5be
00000050: 3af0 1abe 2be7 eabd c535 22be 0faa a5bc
00000060: 06c1 05be 0163 12bd 6ce4 033e 255b b1bd
00000070: 6919 6fbe e255 cabd 6b7a 8a3e 602f c73d
00000080: 5413 843d dc64 44be f6a4 2ebd 48a9 a3be
00000090: a78e 04bf 3e86 22be 51cf 37be b36f 833e
000000a0: a564 d9bd c1c8 cdbd d10b 2ebd fb45 d2bd
000000b0: bf02 603e 0118 f9bd 5332 c93c 577d 113d
000000c0: f2b8 1dbe 6c24 8ebe 4fac b73e 03d8 68bd
000000d0: 56a6 99be f0cd 2f3c dbe6 28be 9b74 1cbd
000000e0: 215e 863e 0141 febd dfcc a7be 1377 35be
000000f0: 2d5c 8cbe a086 9a3e 579c 8dbe 0edc 563e
00000100: a3ac 283d e4ba ed3e b0f6 57bc b7d4 76be
00000110: 0d08 48bd 3e35 babe 4e19 e2bc 0074 313e
00000120: 2b68 d5bd 5f72 8f3d 0a21 8dbe 0959 303d
00000130: f217 673d 18f1 1cbc 5aa6 7f3d 0af2 a63c
00000140: f935 a83d a210 80be a38b 513e e20d 6e3d
00000150: 9c6e 1dbe 13c4 4cbe a22f 143f d640 29bb
00000160: 4dd8 3f3d f22d be3e e4f8 883e 42eb 343e
00000170: 5653 3dbb 8e59 cebd c5ce 17be 0c15 79bd
00000180: 108f 77be 084f 4bbe 3089 9b3d c24e adbb
00000190: 962d 00bf 4ad3 283e a547 ae3d 9a47 173d
000001a0: d356 9abc 358f 663e b2af 1fbb c97a 2ebe
000001b0: c9cf 33be 84d3 a8be be32 9f3e 34be f83c
000001c0: 1570 61be 83e6 e53d 210f 293b 4e21 7dbe
000001d0: 1fe1 67be b53b 0dbe 06bd 9abc d196 273e
000001e0: 9e2a 2dbe 2a8f 243e 7901 9fbc 7119 debd
000001f0: 21a2 23bc 206b c5be 8e2c d83d 4a04 8dbe
00000200: e04e b73e 4998 ab3d 95eb 393d df91 723d
00000210: b535 aabe 0dca 9bbd 07e4 80bd fda9 0fbe
00000220: 623b 8f3e cafd 9f3e a8c9 103e 98fe ab3c
00000230: df64 663d 7b0b 1fbe 14e8 50be 59d1 733e
00000240: c7cd 7ebe f48c 33bd 51c5 dcbd 2051 91bd
00000250: 5db9 0cbe 02f3 8f3e 27ff 31bd 6fb6 8fbe
00000260: f41e 203e 4aa2 8c3e 0dbf a13a 1d94 053d
00000270: 46e8 b4be 3c31 23bd f209 98be 848d 55be
00000280: 89e5 1cbe 5e58 963e c11c 19be 83a2 0ebe
00000290: 2162 69be e419 953e fbef 0f3e 15da 003f
000002a0: 6b2b b23d 5fd7 f83c 5b38 15be 6b2c cf3e
000002b0: 397f 99bd 2260 3ebe dde4 05be 61b7 253d
000002c0: fe05 24be a9e7 c7bd d2b0 84bc 426a 28be
000002d0: f0f3 7fbe c471 42be 7db2 2e3d a3a1 19be
000002e0: f3fd d4bd 39c8 8dbd 6ed9 14be 3b92 9d3e
000002f0: 2a6f c7bd f745 1abe fbd7 b4be 1d32 b93d
00000300: fa52 ff3d 4ba6 44be 81e8 ee3e 2c41 24be
00000310: 377c 4ebe e5ed 9ebe 57d6 433e 5618 883c
00000320: 5740 3fbe 35d8 e4bc 3421 c43e d831 b23e
00000330: 1c57 bfbd 5656 c2be 4722 593e 4ff4 a3be
00000340: 27d9 41bd b538 aabe ba92 1fbe 3a29 7ebe
00000350: 1993 6e3e 5164 523e 08ac d63e 2ad7 e1bb
00000360: 40c4 793c 65fc 8a3d 6d7a 5bbd c89b 223c
00000370: b1e3 2bbe 32b6 bebb 4925 7dbc 27e0 473e
00000380: 8d51 473e 6db7 a93d ab2f a73e 40ef e83d
00000390: 3ed2 773e b332 26bb 07d2 4fbc 13af 15be
000003a0: 9fa7 d73c 2f79 023e 5936 bdbd 8878 c73e
000003b0: 1c88 19be 29ac babc f4f6 4a3e e99c 343d
000003c0: 5752 5cbe 1daf 96bd bfac 563e 01d2 a53d
000003d0: fc13 95be 7243 77be 9151 7abc fb6a 17bd
000003e0: 133f d23e 0de0 63bd 8ac2 253e d676 eb3e
000003f0: dc1a d93d b864 9abe ed9e 86bd 11d9 63be
