S8/Weights/model_bn.pth (torch, 165684 bytes, 43 tensors)

conv1.weight f4 [10, 3, 3, 3]
000000 66 dd 4d bf 1e 32 06 be d8 c0 23 bf 56 36 7b 3d
       -0.8041595 -0.13105056 -0.6396613 0.061331116
000010 72 5a 1a bf 3d f4 b8 bd 98 3a 62 3f b5 8a f6 3e
       -0.6029426 -0.0903096 0.88370657 0.481527
000020 92 81 61 3f 66 6a 94 3d 86 83 33 3e c6 68 cd bd
       0.88088334 0.072468564 0.17530641 -0.100297496
000030 18 e0 3d 3e 0c ae f8 be fc 9e cf bd 59 ee 44 3e
       0.18542516 -0.48570287 -0.10137746 0.19231547
000040 bf 01 c0 3d 1c ed 50 3e 34 30 49 3e 6b 87 06 3f
       0.09375333 0.2040295 0.19647294 0.5255038
000050 eb 0b 9e 3e 71 2c d3 bd 5b ee 34 bf 8c b7 7e 3d
       0.30868468 -0.10311211 -0.706762 0.062186763
000060 e8 85 ce bd 8e 62 e0 be af e6 cd 3d 1f 4a 44 3e
       -0.10084134 -0.4382519 0.10053765 0.191689
000070 7d 61 b2 be 08 76 71 3d 11 39 ad 3e 35 49 ac be
       -0.34840003 0.058950454 0.338326 -0.33649603
000080 af 6a 4a 3e 73 87 a5 be f9 0d 1d 3e 08 82 40 3e
       0.19767259 -0.32329902 0.15337361 0.18799603
000090 dc 87 1f 3f 3c 62 bc be b2 cd c4 3e 91 48 a3 3e
       0.6231668 -0.36793697 0.38438183 0.318913
0000a0 6e 50 04 bf 0a df 1b 3e f3 8e 69 be 0b 14 b7 3e
       -0.51685226 0.15221801 -0.22808437 0.3575748
0000b0 ea a1 16 3e 14 3e 1a 3f aa 29 c4 be 06 6f 4c be
       0.14710203 0.60250974 -0.38313037 -0.19964227
0000c0 e5 c0 9f 3e 12 76 5d bf 37 49 05 bf 6a a0 85 bd
       0.31201854 -0.86508286 -0.5206484 -0.06524737
0000d0 a1 49 ca 3d 16 3f 8b be d0 85 99 be a8 d8 9c 3e
       0.09877325 -0.27196568 -0.29984903 0.30634046
0000e0 83 70 8e 3d 12 9f 52 bf bf ce 35 3e 2d 26 2f 3f
       0.06955054 -0.8227397 0.17754649 0.68417627
0000f0 2d bb 16 be dc bf 82 3d 54 fb aa 3d 0d ab ac be
       -0.1471984 0.063842505 0.08348718 -0.3372425
000100 13 67 98 3e 82 08 bc bd 6a 63 23 bf cd 85 d1 3d
       0.2976614 -0.0918131 -0.6382357 0.102305986
000110 5f 6c 33 3f 1c f7 75 3c 09 06 1a be 50 dc e3 3d
       0.70087236 0.015012529 -0.15041365 0.11126006
000120 d5 33 33 bd c6 a1 8c 3e 1d 09 b4 be aa 8c 1e bf
       -0.043750603 0.27467173 -0.35163203 -0.61933386
000130 62 96 e3 3c a1 59 9b 3e d5 a5 b2 3e d0 d7 28 3c
       0.027781669 0.3034182 0.34892145 0.01030536
000140 62 d1 e8 bd a7 56 f6 bb 31 65 12 3f 2f a4 b6 3e
       -0.113680616 -0.007517654 0.57185656 0.35672137
000150 e2 ad 30 3f 10 22 87 3e 05 a2 36 3e e4 09 b2 3d
       0.69015324 0.26393175 0.17835243 0.08693293
000160 37 66 28 3e 50 0c fc bd bb 89 04 be 62 e8 59 be
       0.16445242 -0.12307036 -0.12943165 -0.21280053
000170 e4 1f 11 be 82 96 e9 3e 4d 6d 1a bf 44 8e c2 be
       -0.14172322 0.4562264 -0.6032303 -0.37999165
000180 4b 60 c6 3d bb ed be be 51 dc 9f bd c8 47 d7 be
       0.09686335 -0.3729075 -0.07805694 -0.42046952
000190 5d 03 55 be a3 4e 2b 3d 93 27 4b be c8 15 e5 be
       -0.20802064 0.04182304 -0.19839315 -0.4474318
0001a0 1a d3 14 3e 07 25 66 bd 16 64 b2 bd 4a 78 c4 3e
       0.14533654 -0.056187656 -0.08710496 0.38373023
0001b0 49 2c 8b 3e ef f9 81 3e 6d 61 27 be 10 0d 1a 3f
       0.27182224 0.25385997 -0.16345759 0.6017618
0001c0 ef 44 36 be f0 48 40 bf c6 07 92 3d 77 08 6f 3e
       -0.17799734 -0.75111294 0.07130389 0.23343073
0001d0 50 43 89 be cf c8 cb 3d 63 82 8d bd 48 e7 c0 bc
       -0.26809168 0.099504106 -0.06909635 -0.023547783
0001e0 e1 d9 37 3f 75 57 9f be 95 53 3f bf 22 24 0f be
       0.7181683 -0.31121412 -0.7473691 -0.13978627
0001f0 be 48 75 3d 44 52 b8 bd bb 05 80 3c 0c da a2 bc
       0.059883825 -0.09000066 0.015627733 -0.019879363
000200 3f 69 b9 bd f2 06 f9 3e f8 ba a3 bd 50 7d b7 be
       -0.09053277 0.4863811 -0.07994646 -0.35837793
000210 23 d0 87 3d 09 17 8a 3e 56 ea a2 3a 37 fd 22 3e
       0.06631496 0.269707 0.0012429457 0.15916906
000220 42 83 08 3f 9b 40 20 3f 2a bd 94 bd ac e9 93 be
       0.53325284 0.6259858 -0.07262643 -0.28889215
000230 24 f7 8d be eb 1d dd 3c 1c 8a 97 be 2a 7d 18 be
       -0.27727616 0.026991805 -0.29597557 -0.14891496
000240 6b 37 2b be ee f8 25 3f 6a 75 28 3f 67 6d 66 be
       -0.16720359 0.6483296 0.6580416 -0.22502671
000250 82 7c 19 bf c8 09 11 be 69 a6 99 3c f8 60 06 bf
       -0.5995561 -0.14163888 0.018756108 -0.5249171
000260 d0 b5 15 be 69 e8 eb bd 5d fc 15 3f 9b b2 ab 3e
       -0.14620137 -0.11518938 0.585882 0.33534703
000270 10 8b 42 3e a3 c1 92 be 5b 91 2e be 8c 62 ef ba
       0.1899836 -0.28663358 -0.17047636 -0.0018263622
000280 8f c6 ab bd fd 49 ac be ea e4 08 3f 5f 7b 22 be
       -0.083874814 -0.336502 0.53474295 -0.15867375
000290 96 c0 68 bd d2 93 8e bd 3a b7 35 be a4 d8 14 bf
       -0.05682429 -0.06961788 -0.17745677 -0.5814307
0002a0 5c 3c 3c 3e 71 14 6a 3e b6 87 81 be a0 84 03 bd
       0.183824 0.2285936 -0.25298852 -0.032108903
0002b0 e7 ed 8b bd 2a 27 44 3e 8c 0c 5e be 4c 6a 90 3e
       -0.06832486 0.19155565 -0.21684474 0.28206098
0002c0 1a 87 7e be 9f 08 cc be 39 92 d1 3e 9e fd 4b bd
       -0.24856225 -0.39850327 0.40931872 -0.049802415
0002d0 c8 51 fe be 0f d7 aa 3d 0f 2e 6b 3e 37 fd d6 be
       -0.4967177 0.083418004 0.22966789 -0.41990063
0002e0 b1 b5 fa 3e eb f4 6c 3e 89 9a a3 be 7a 59 37 3f
       0.48966745 0.23140304 -0.31953838 0.71620905
0002f0 4f fc a6 3e 00 2c a3 3d bb 16 c9 be 96 01 02 be
       0.3261437 0.07967377 -0.39275154 -0.12695917
000300 c9 c9 c3 3c 0f b0 71 3d 2c 22 86 3e 1a 57 8a be
       0.02389993 0.059005793 0.26197946 -0.27019578
000310 51 91 ce 3e a8 f7 4d be ff ad 1d be 0f 95 e9 be
       0.40345243 -0.20114005 -0.15398405 -0.45621535
000320 d1 b7 af bd b2 f2 a3 be 38 d1 1d 3d 6a 31 d8 3e
       -0.08579982 -0.320211 0.038529605 0.422252
000330 c8 50 f4 be 67 8b 74 3e 48 80 dc bd af 46 53 3e
       -0.4771788 0.23881303 -0.10766655 0.20632432
000340 cb 08 e9 3b 8a 12 68 3d cc c4 a8 bd 2c 22 38 3e
       0.007111644 0.056658305 -0.08240661 0.17981786
000350 32 8e 71 bd 87 fd cc be 84 5a f9 3e 43 76 11 be
       -0.0589735 -0.40037176 0.4870187 -0.1420527
000360 e0 27 ef be 1b 47 80 3e fc d3 9b 3d 62 66 05 3c
       -0.4671011 0.2505425 0.07608792 0.008142086
000370 78 d6 94 3e 47 85 3c 3e b5 33 74 3e df 66 e4 3e
       0.29069877 0.18410216 0.2384785 0.44609734
000380 9b 05 3c 3e cd 1f f5 be 90 92 ca 3e 4b 44 4f bd
       0.18361513 -0.47875825 0.39564943 -0.05060224
000390 45 34 91 3b c1 f1 29 3d 29 5f 7a be 7a cd e9 bd
       0.00443128 0.04149032 -0.24450363 -0.11416145
0003a0 79 fd e9 3d f3 78 bc be 81 de 66 bd 26 0a 11 3f
       0.11425299 -0.36811027 -0.05636454 0.5665611
0003b0 70 63 04 3e 7e f3 09 be f9 b1 d6 3d 96 75 63 be
       0.12928557 -0.13471791 0.10483164 -0.22212824
0003c0 00 eb af 3b c6 ed d3 bd eb 68 58 be f2 c7 ac 3d
       0.0053685904 -0.10348086 -0.21133773 0.08436574
0003d0 10 0d 80 be 5c 92 23 be 4c 08 ad bd 00 e8 07 3f
       -0.25009966 -0.159738 -0.08448848 0.5308838
0003e0 1b bd 3b be e7 fc 6b be 4f 96 d0 3d 1d 02 cf bc
       -0.18333857 -0.23045693 0.10184919 -0.025269562
0003f0 be b8 53 be 2a 1e de bd ad cf 8a be 6d fa 53 be
       -0.20675942 -0.10845597 -0.2711157 -0.20700999

norm1.weight f4 [10]
000000 b1 08 8b 3f 4d 5b 92 3f 37 6e 93 3f 1e d5 4b 3f
       1.0862027 1.1434113 1.151801 0.79622066
000010 43 00 8c 3f 74 5a 81 3f 9f 74 81 3f a8 d8 2c 3f
       1.093758 1.0105729 1.0113715 0.6751809
000020 e8 a0 2e 3f 49 51 94 3f
       0.68214273 1.1587306

norm1.bias f4 [10]
000000 da a7 f0 bd 0e 70 03 bf df df b4 bc 35 f8 9b bc
       -0.11750765 -0.51342857 -0.022079406 -0.019039253
000010 4b fa ba be ca d0 ec be ae 9a e8 bd 26 40 00 3e
       -0.36519083 -0.46253043 -0.11357628 0.1252447
000020 ee d7 14 3d 91 b5 ee bd
       0.03633874 -0.11655725

norm1.running_mean f4 [10]
000000 ab 55 68 3e 67 46 a0 3e 43 d8 6b 3e fa 78 87 3e
       0.2268893 0.31303713 0.23031716 0.26459485
000010 d4 7b 80 3e 40 bb 9b 3e 87 01 02 3e a3 ce 58 3e
       0.25094473 0.30416298 0.12695895 0.21172576
000020 b2 95 30 3e d2 e1 80 3e
       0.17244604 0.25172287

norm1.running_var f4 [10]
000000 39 bd 37 3e 16 82 4b 3e e5 8c 5c 3e ad 78 21 3e
       0.17943276 0.19873843 0.21538122 0.1576869
000010 5d 8d 80 3e d8 7b ab 3e b5 7d 88 3d 6c 0c b6 3d
       0.25107852 0.33492923 0.06664602 0.08889088
000020 b7 fe a4 3d 89 0a 6b 3e
       0.080563955 0.22953238

conv2.weight f4 [10, 10, 3, 3]
000000 41 0e 25 3e 51 f4 4b 3d 8d 32 57 3e ad 50 74 3e
       0.16118719 0.049793545 0.21015377 0.238589
000010 6e 69 91 3e bb c2 f1 bd 37 60 44 bc 30 37 c0 3c
       0.2840075 -0.1180472 -0.01198583 0.023463815
000020 2b 70 b0 3d e9 88 bc be 39 8c fc bd 91 a4 62 3d
       0.08615144 -0.36823204 -0.12331433 0.055332724
000030 e2 c0 a1 bd e9 f4 07 be e7 ec cf bd 12 bc 86 3e
       -0.078981176 -0.1327702 -0.101526074 0.2631536
000040 93 8c 9b bd d8 98 5e bd 9d f2 65 3e 18 fd 38 be
       -0.07595172 -0.054344982 0.22455831 -0.18065298
000050 c9 36 3f 3d d7 94 72 be 81 2a 8c 3e de 34 86 3d
       0.046683107 -0.2368959 0.27376178 0.06553052
000060 44 2a 27 be e0 fa c7 3e 0d ae cb 3d d4 f7 89 3d
       -0.16324717 0.3905859 0.09945307 0.067367226
000070 e9 17 bf bd 52 6e 22 be ed c1 80 3e 83 d1 a3 bd
       -0.093307324 -0.15862396 0.25147954 -0.079989456
000080 5a a0 5f be 7f 34 ff bb 38 17 86 3d 3c 9f 0e 3e
       -0.21838513 -0.0077882404 0.065473974 0.1392793
000090 f1 8e 57 bd 19 f4 26 be 07 dc 8a be 0e 96 48 bd
       -0.052626554 -0.16304053 -0.27120993 -0.04897123
0000a0 eb 41 24 be ae 84 89 bd 5e 12 fc bd ee 92 9a 3d
       -0.1604077 -0.0671476 -0.12308191 0.07547556
0000b0 fa ca 74 3b fc ce 8a 3e 42 50 5b 3d 45 df b3 3d
       0.0037352429 0.27111042 0.053543337 0.0878282
0000c0 c2 76 82 bd 65 e8 09 3c 22 c5 ab bd 2a 85 8a be
       -0.063703075 0.008417224 -0.083872095 -0.2705472
0000d0 f4 50 1c be 14 08 72 bc 6b 60 57 be a5 55 70 3d
       -0.15265256 -0.014772434 -0.21032874 0.058675427
0000e0 37 45 f0 bd 10 1f a6 bd a2 a9 af bd 73 e5 18 3d
       -0.11731952 -0.081113935 -0.08577277 0.037328195
0000f0 bf 09 0e be bc bc 40 be c0 b9 0f 3d 01 13 0d be
       -0.13870905 -0.18821996 0.035089254 -0.1377678
000100 94 9a 0f 3e 51 04 58 3e ee e9 1d be 28 0e 0c 3d
       0.1402381 0.21095397 -0.15421268 0.034193188
000110 7d 1a 85 3e 45 be 08 3e 40 46 39 3e fe 45 ac bd
       0.2599677 0.13353832 0.18093204 -0.084117875
000120 a4 2c 51 be 82 b3 67 be d7 7c 01 bd fe 39 fc bc
       -0.20427185 -0.2262707 -0.031613197 -0.030789372
000130 48 6b ad bd 64 4c 28 bd 78 ff a2 bd b3 92 ff 3d
       -0.08467728 -0.041088477 -0.07958883 0.124791525
000140 65 d4 4e 3e d6 42 1a bc 63 af 26 3e 4d fc 20 bd
       0.2019821 -0.009415349 0.16277842 -0.039303113
000150 35 db 52 be 8e c6 39 3e 35 c4 61 3e 39 d8 34 3d
       -0.20591433 0.18142149 0.22047503 0.04415152
000160 64 ff 35 3e 4e e8 96 bd 88 35 43 be ab 9f 2c 3e
       0.17773205 -0.07368527 -0.1906339 0.16857783
000170 6e d0 9c be 3e f4 fc bd d0 28 8f be 1b 17 3e be
       -0.3062777 -0.12351273 -0.27960825 -0.18563502
000180 2c 60 96 3e 27 9f b9 be ca 98 10 3e bf 6a d5 bd
       0.29370248 -0.36254236 0.14120784 -0.10420751
000190 11 f0 2d be 63 0d 38 3e 23 64 bb be 13 8e d8 3e
       -0.1698611 0.17973857 -0.36599836 0.42295894
0001a0 b4 d8 42 be 68 a2 f4 3c c7 ca e7 bd 67 bf ca 3b
       -0.19027978 0.029862598 -0.113179736 0.0061873677
0001b0 8b 6a 75 be 78 38 d7 bd 2b 9f c9 bd 60 7b 00 3e
       -0.23966424 -0.105088174 -0.09844812 0.12547064
0001c0 e9 d5 81 be 39 09 45 3e 0e 0b be 3d 5d aa 9b bc
       -0.25358513 0.192418 0.09279452 -0.019002134
0001d0 b0 4e 83 3e c0 f7 f0 bc f3 da 20 3f b2 3e c1 3d
       0.2564597 -0.029415011 0.6283409 0.09435786
0001e0 29 7e c8 bd d3 3c 09 3d ae 6e 15 be c9 b5 f3 3b
       -0.09789688 0.033505272 -0.14593002 0.007437442
0001f0 61 69 3b be 43 3e d2 3d 14 7c 31 3d 0a 0e e8 bc
       -0.18301918 0.10265782 0.04333122 -0.028327007
000200 ea b9 bd bd 9a 43 ea 38 58 b2 4f 3d 95 ae ab bd
       -0.09263976 0.00011170581 0.05070719 -0.08382908
000210 cd be d9 3c dc 3f 7c 3d 2f ce 24 3c 66 49 93 be
       0.026580239 0.06158434 0.010058924 -0.28766936
000220 d8 fb 25 be e8 8d 80 bd 34 e4 92 be ec 52 d5 be
       -0.16209352 -0.062770665 -0.2868973 -0.41664827
000230 d6 b1 1b 3d 7f e5 c0 be ff ba 2f be cd f0 d6 bd
       0.038011394 -0.37675092 -0.17161177 -0.10495148
000240 17 af 15 3e d2 0f e2 be 6b 8a 79 3d d0 0e f2 bc
       0.14617573 -0.44152695 0.06092302 -0.029548079
000250 2b 5e 33 be 81 f1 b7 3d ea 39 aa 3d d7 e4 70 3d
       -0.17516391 0.0898161 0.083118275 0.05881199
000260 7a c0 4b 3e 7d 14 19 3e 33 6f e0 be b2 94 9b 3e
       0.19897643 0.14949222 -0.43834838 0.30386883
000270 c8 1e 6a be 58 8d c9 bd a4 85 4f 3e 96 79 4c bd
       -0.22863305 -0.09841412 0.20265824 -0.04992064
000280 d8 fc 81 3d b1 59 c3 3d d9 7a d0 bd 6b 14 05 be
       0.06347054 0.09538592 -0.10179681 -0.1299607
000290 95 e4 18 3d 3e 19 a7 3b 2e 4c 42 be 0a 10 ad 3d
       0.037327368 0.0050994447 -0.18974373 0.08450325
0002a0 55 73 ac ba 72 80 d0 bd b0 98 05 bd eb e9 44 3e
       -0.001315693 -0.10180749 -0.032616317 0.19229858
0002b0 73 69 b3 be a2 f2 01 3e 3b 11 a8 bd a3 c1 c5 be
       -0.3504139 0.12690213 -0.082064115 -0.38624296
0002c0 08 1f 7a 3d f4 36 aa be bc 27 56 be 75 ed 11 3e
       0.06106475 -0.3324505 -0.20913595 0.14250739
0002d0 04 c8 6f 3d e7 70 c1 be 99 ea a9 bd 4e 73 be bd
       0.05854036 -0.3778145 -0.08296699 -0.092993364
0002e0 aa ab b9 be 63 60 a7 3d 70 fd 0e be 72 ff 15 be
       -0.36263782 0.08172681 -0.13963866 -0.14648226
0002f0 be ba df bd 7e 86 31 3c 94 d6 a6 bc 54 24 40 3d
       -0.1092429 0.010835288 -0.02036599 0.046909645
000300 c8 a3 2e bd 0b 2f b9 be f2 af 09 3e cc 49 8c be
       -0.042636663 -0.36168703 0.13446024 -0.27400053
000310 35 e3 2d be 2e 96 d1 3e b9 5d bd bd 47 22 60 3e
       -0.16981204 0.4093489 -0.09246392 0.21888076
000320 cd 85 1e 3d 3e 7b 60 3e f5 0f 67 3d 04 66 bd bd
       0.03870182 0.21922013 0.056411702 -0.092479736
000330 70 05 e7 bc f2 f2 e5 3e 9a a6 c2 3e 77 5d d1 3e
       -0.028200835 0.44911915 0.38017732 0.4089162
000340 64 b9 68 3d 3f 7d 18 be 14 67 1c bd b8 2b da bd
       0.056817427 -0.14891528 -0.03818424 -0.1065287
000350 2f a2 9a bd 0c e5 cc 3d da ee e6 bd fe 82 74 be
       -0.07550465 0.10004625 -0.11276026 -0.23878095
000360 96 54 08 be 2b f8 85 bd 0d c3 66 be 45 e2 1c be
       -0.13313517 -0.06541475 -0.22535343 -0.1532069
000370 d2 b4 04 bc 92 1c b4 bc 7f b5 c2 3c 38 f5 a3 3e
       -0.008099752 -0.02198628 0.023768185 0.32023025
000380 d5 90 27 3e c2 f0 1c be da 1a 18 3b 04 d9 22 3d
       0.16363843 -0.15326217 0.0023209364 0.039757743
000390 78 47 b9 be 3f cd 1b be e1 57 1d 3e b4 2d e0 be
       -0.3618734 -0.15215014 0.15365554 -0.4378487
0003a0 e4 02 4e bd a0 85 02 3e 1c 2d 1d 3d 60 68 5f 3e
       -0.050295725 0.12746286 0.038373098 0.2181716
0003b0 4a 77 fd bd e9 8c 7f bd 94 d9 a2 3d 82 30 8b be
       -0.12376268 -0.06239024 0.07951656 -0.27185446
0003c0 74 56 63 3d 41 f4 15 bd 0a 9c 08 bd 02 07 3b 3d
       0.05550237 -0.03660989 -0.033351935 0.04566098
0003d0 7d f7 3a 3e 08 bf e6 bd 91 8a fd 3d 21 ee 59 bd
       0.18258472 -0.11266905 0.12379945 -0.053205613
0003e0 fb ba 37 3d af 2c 72 3b a0 4d 02 3c e8 88 88 3d
       0.044856053 0.0036952903 0.007953078 0.06666738
0003f0 35 bd 6c be 4f 13 a0 3d f6 db 88 3e 7c 7b a8 bd
       -0.23119052 0.07816183 0.26730317 -0.08226678

norm2.weight f4 [10]
000000 99 c3 63 3f 0c ba 7f 3f af 64 84 3f 42 62 58 3f
       0.88970333 0.9989326 1.0343226 0.8452493
000010 0a 71 93 3f 7f 7e 84 3f bd 7e 54 3f 03 79 87 3f
       1.1518872 1.0351104 0.8300589 1.0583805
000020 80 f5 8a 3f 13 8f 8b 3f
       1.0856171 1.0903038

norm2.bias f4 [10]
000000 bc 83 5a be b0 f7 47 be 80 74 17 bd e5 fd 38 be
       -0.21339315 -0.19528079 -0.036976337 -0.18065603
000010 49 74 6b be 90 c7 1e 3c 62 aa be 3c a5 95 f6 be
       -0.22993578 0.009691134 0.023274604 -0.48161045
000020 76 38 51 3c 7d be a1 bd
       0.012769809 -0.07897661

norm2.running_mean f4 [10]
000000 e9 41 90 3f 2c 00 e4 3f 8e 8e a9 3f 45 02 f7 3e
       1.1270114 1.7812552 1.3246629 0.4824392
000010 79 8b 90 3f c0 ac 93 3f 68 84 56 3f a1 d9 b8 3f
       1.1292564 1.1537094 0.83795786 1.4441415
000020 08 7e cd 3f 4f a8 a6 3f
       1.6054087 1.3020114

norm2.running_var f4 [10]
000000 6b f8 0a 40 17 36 0b 40 90 fd ec 3f 02 93 37 3f
       2.1714122 2.1751764 1.8514881 0.7170869
000010 88 0c 0f 40 26 22 99 3f ac 52 bb 3f 18 bf 0f 40
       2.2351398 1.1963546 1.4634604 2.2460384
000020 ab f8 04 40 0f 4f af 3f
       2.0776775 1.3696002

tns1.weight f4 [16, 10, 1, 1]
000000 af a0 16 3e a3 68 14 3f 3d 3f 47 be ff 75 38 3e
       0.14709733 0.5797216 -0.19457717 0.18013762
000010 9e 59 ce 3e 2a 8c 42 3c d2 d7 3f bd 5b 6a ca be
       0.40302747 0.011874238 -0.04683668 -0.39534268
000020 65 bb 60 be ca 8b 9d be 19 6b df be e8 e6 a6 be
       -0.21946485 -0.30770713 -0.43636397 -0.32598042
000030 6c 37 8a 3e 3c a4 28 be cf 6f 90 be 2f 4e bf be
       0.2699541 -0.164689 -0.28210303 -0.37364337
000040 8a 62 aa 3e 7e 72 a3 be f3 79 eb 3e 5a 03 ad 3e
       0.33278304 -0.31923288 0.45991477 0.3379162
000050 b0 a6 40 3c a7 d0 cd bc d9 d4 d0 3e a6 55 61 3e
       0.011758491 -0.025123907 0.4078739 0.22005329
000060 50 e8 26 3e a2 bb d3 be 89 5b 96 be a3 24 f0 3e
       0.16299558 -0.4135409 -0.2936671 0.46902952
000070 df 92 00 3d 87 4b 00 bf 0c 55 ee 3e f6 a6 00 bf
       0.031390067 -0.50115246 0.4654926 -0.5025476
000080 d0 33 c7 bd aa 65 d0 3d f4 76 61 3d 05 e8 d1 bc
       -0.09726679 0.10175641 0.055045083 -0.02562333
000090 14 34 c0 be 95 41 d9 3e d7 fb 50 3e f6 ec b6 3e
       -0.37539732 0.42432848 0.2040857 0.35727662
0000a0 b8 47 6e 3e 06 4f 4f be 8d c3 9c be b1 9f aa be
       0.23269546 -0.20244989 -0.30617943 -0.3332496
0000b0 f0 f6 41 be ac a8 1b bf cc 33 76 3d 81 24 6e 3e
       -0.18941855 -0.6080425 0.06010799 0.23256113
0000c0 ed 1c 0b bf 67 a0 a4 3e 1c 22 11 3d 49 dc 3a bd
       -0.5434101 0.32153627 0.03543292 -0.045620237
0000d0 be 2f cd 3e 90 b0 e2 bd b4 b3 8b be e7 4c b5 3e
       0.40075487 -0.11068833 -0.2728554 0.35410234
0000e0 fd 4d 5d 3e d9 10 4a 3e 92 db 88 3e d0 5b 2d be
       0.21611781 0.1973299 0.2673002 -0.16929555
0000f0 d8 2d 10 bf c3 e6 07 3f cd 0d d2 bd 73 90 97 be
       -0.5631995 0.5308649 -0.102565385 -0.29602394
000100 c2 ed 0e bf 44 51 61 be 51 71 a3 be 6f 79 40 3e
       -0.5583154 -0.22003657 -0.3192239 0.18796323
000110 f4 04 6d be 0e ec 89 be 42 f2 bf be 09 9a d5 bd
       -0.2314642 -0.26937908 -0.37489516 -0.104297705
000120 2e e8 e0 3d 5c 83 fe 3d 28 b2 09 3e 80 d2 b5 3e
       0.10981785 0.124273986 0.13446867 0.3551216
000130 38 96 14 bf 8f 93 34 be d3 cc e0 3e 21 2a cd be
       -0.58041716 -0.17634414 0.43906268 -0.40071204
000140 ee 87 11 be 04 89 93 3d 39 0b 95 bd 00 64 2f 3f
       -0.1421201 0.07203868 -0.07277531 0.6851196
000150 3e 1a 81 bd e7 58 d4 bd 8a da eb 3e c0 84 ac 3c
       -0.063038334 -0.10368519 0.4606517 0.021059394
000160 f5 c0 47 bd e7 0c ec 3d 1d 30 b0 3e 52 85 d2 3e
       -0.048768003 0.115258984 0.34411708 0.4111734
000170 f6 88 43 be e0 5d 53 bd 31 7a ae 3d be 98 20 bd
       -0.19095215 -0.051603198 0.085194 -0.039208166
000180 4b 02 98 3d e4 db d3 3e 58 83 b2 3e 2f 05 db be
       0.07422312 0.413787 0.34865832 -0.42777392
000190 27 1a 1a be fd 9f 29 be a8 f8 08 be a0 a6 1e be
       -0.15049039 -0.16564937 -0.13376105 -0.1549325
0001a0 42 ef f2 bd 0c c8 35 3f 14 57 8a 3e 69 32 e6 be
       -0.11862041 0.7100837 0.2701956 -0.44960335
0001b0 03 9f 91 be f2 79 70 3e ae 64 4e 3d 76 69 09 3e
       -0.2844163 0.23484018 0.050388984 0.13419136
0001c0 0a d6 22 3f 16 06 7a be 15 f5 76 be f1 16 2c 3d
       0.6360785 -0.24416384 -0.24116929 0.042014066
0001d0 53 32 e3 bc da 2c 9f be 12 00 d9 be 0d 5e a0 3d
       -0.027733957 -0.31088907 -0.42382866 0.07830439
0001e0 6c f4 b0 3e 81 8c 4b be 04 90 01 bf f8 75 68 3e
       0.3456148 -0.19877817 -0.50610375 0.22701252
0001f0 49 b0 ed be cc 9a d1 3d d3 8c 67 3e 2c 2e 7d be
       -0.46423557 0.10234603 0.22612314 -0.24724644
000200 30 ac 06 3f ae 7f 1f be 63 64 07 3e be cc 99 be
       0.5260649 -0.1557605 0.13221888 -0.30039018
000210 10 24 1d 3e 71 ab 7b 3e 79 2c 25 3f 25 c5 0a 3d
       0.15345788 0.24577118 0.64520985 0.033879418
000220 56 b4 61 3e e9 ed ce be 55 7c 43 be 29 e3 a7 3e
       0.22041449 -0.40415886 -0.19090398 0.32790497
000230 ab 7c 24 be f7 60 92 3e 21 bd 05 be 0f fa 86 3e
       -0.16063182 0.28589603 -0.13060428 0.26362655
000240 d1 91 88 be 17 33 31 3d 59 78 bb 3e 5d c5 c8 bd
       -0.2667375 0.043261614 0.36615255 -0.09803269
000250 51 46 59 be 1a 3a ca be 79 bc b3 3e 84 37 d7 bd
       -0.2121823 -0.39497453 0.3510473 -0.10508636
000260 23 5d f5 be 43 1d 68 3e e4 7e cb 3e dd 24 32 3e
       -0.4792262 0.22667412 0.39745247 0.17396875
000270 f7 e7 03 bf 7b d1 8b bd 5f c1 ba be 12 80 51 be
       -0.51525825 -0.068270646 -0.36475655 -0.20459011

conv3.weight f4 [24, 16, 3, 3]
000000 a1 cd 78 be 6d 7b 16 3d 3e a6 8d 3c 8c c4 9a bc
       -0.24297191 0.0367388 0.017291185 -0.018892549
000010 c2 ae 19 3e a1 5a ab bd 14 45 5c 3d c6 f6 e0 3c
       0.15008071 -0.083668955 0.053776816 0.02746142
000020 f0 d7 9b bd 67 69 88 3d 2d 58 65 be a2 2b ff bc
       -0.07609546 0.06660729 -0.22396918 -0.031148735
000030 d6 b7 ca 3d 1c 21 5f be 82 72 b5 39 ad 61 b9 3d
       0.09898345 -0.21789974 0.00034608325 0.09051833
000040 58 6f 76 bd f4 40 33 bd c4 27 2b bd d7 c1 f6 3d
       -0.06016478 -0.043763116 -0.04178597 0.12048691
000050 1d 9e df 3d e2 ed 38 be 3a a3 a0 3e e3 90 e7 bd
       0.109188296 -0.18059495 0.31374532 -0.11306932
000060 c9 62 8b 3c c4 ce e6 3d c1 a5 63 3d 7c 92 b3 3c
       0.017014878 0.11269906 0.055577997 0.021920435
000070 50 68 d4 3c 23 5f cc bd 41 eb 00 bc ff bf 1a 3e
       0.025928646 -0.099790834 -0.007868589 0.15112303
000080 60 08 8e 3d 20 e4 6f bc 97 b3 05 3a b4 80 b6 3c
       0.06935191 -0.014641792 0.00051003083 0.022278167
000090 68 db ba 3c 53 77 51 bd da b2 05 be 4a 22 f3 3d
       0.0228097 -0.051139187 -0.13056508 0.118717745
0000a0 2f 51 4a 3c fd 9c c9 bd 15 38 d5 3d b2 7f 9e bc
       0.012348457 -0.09844396 0.104110874 -0.019348
0000b0 05 90 43 be 02 98 1d be 5a 14 15 be 69 11 4c 3d
       -0.19097908 -0.15390018 -0.14558545 0.04982129
0000c0 51 cc 24 be 2c 92 f7 bd 8b 68 0c 3e 71 50 d8 bd
       -0.16093566 -0.12088427 0.13711755 -0.10562218
0000d0 01 6c e2 bd f0 5c 36 be 59 0d ca bc 47 6b f7 bc
       -0.11055756 -0.1780889 -0.024664568 -0.030202521
0000e0 4f 27 5c bd ad d5 d3 3d 05 b1 14 3e 7a 9f d7 3d
       -0.053748425 0.1034349 0.14520653 0.105284646
0000f0 37 37 08 3c 53 ec 7a 3e 20 ec d3 3e 14 28 4e bc
       0.0083139455 0.24504213 0.41391087 -0.012582798
000100 c0 f8 73 be 83 14 38 be 9e b4 e9 3d 1c 29 24 be
       -0.2382536 -0.17976575 0.11411403 -0.16031307
000110 f4 2a 7a bc 82 cb c6 3d 6f 97 06 be ab 52 0a be
       -0.01526903 0.09706785 -0.13143705 -0.13508098
000120 df 8a 56 3d 8d d0 0f 3e 93 22 1a bd 64 d0 69 bc
       0.05237853 0.140444 -0.03763063 -0.014270876
000130 b9 7b 4d 3e c0 07 60 3d 8e 13 cd bd f2 9d 25 3d
       0.20066728 0.05469489 -0.100134954 0.04043383
000140 69 be 2c 3d fb 05 9b 3d 20 06 9d bd 5c 0d 7e 3b
       0.042173777 0.075695 -0.07667184 0.0038765287
000150 62 2c fa 3d 29 fd 7a 3e fc 4d 37 3c db 63 fe 3c
       0.122154966 0.24510635 0.0111880265 0.031053474
000160 df 10 99 3d 19 91 d6 3d 67 c8 de bd 13 83 87 3d
       0.07473921 0.10476894 -0.108780675 0.06616797
000170 d3 61 0e 3d 10 4d 6f 3e b3 d4 d7 bd f7 d6 89 3e
       0.03476126 0.23369241 -0.10538616 0.26921818
000180 bf 2a 05 3e 6e 7a 95 bd 11 a9 97 bd b8 bc 8a bd
       0.13004588 -0.07298742 -0.07405294 -0.067742765
000190 4b d4 2e 3c 48 b3 13 3c 28 28 d4 3c 56 48 e7 3c
       0.010670732 0.009014912 0.025898054 0.028232735
0001a0 b9 41 46 3d 35 fc 62 bd 1e 93 12 3c 5d c6 43 bd
       0.04840252 -0.055416305 0.008946208 -0.047796596
0001b0 c6 32 13 3e a6 4d ac bd bd 14 b4 bd dc 7c 60 3e
       0.14374837 -0.08413248 -0.08793018 0.2192263
0001c0 0a bd 13 be bf bd bb bd 22 df cd 3d e7 0f 46 bd
       -0.14427581 -0.091670506 0.10052325 -0.04835501
0001d0 11 2a 32 be 57 e5 03 be 5b 63 e3 3c 5f 7d a5 bd
       -0.1739886 -0.12880455 0.027757337 -0.08080553
0001e0 7e 1c e1 3d c5 c7 65 3d 5d b4 06 3e a9 f3 ee bc
       0.109917626 0.05609872 0.1315474 -0.02916892
0001f0 82 37 17 bd ab 55 46 3e 24 5d a4 bd 1f db ca 3b
       -0.03691817 0.19368617 -0.08025578 0.006190672
000200 9e ce eb bc 1d 0f 70 bc 07 64 93 3d 0a 10 41 be
       -0.028785046 -0.014652041 0.07196813 -0.18853775
000210 a3 77 c0 bc 5c 3e 00 bd 3b 3c 08 bb 1a d2 06 3c
       -0.023494547 -0.03130947 -0.0020787853 0.008228803
000220 13 3b 8a bc 4b 73 e6 bd a5 79 07 3e c3 fd 20 3e
       -0.016873872 -0.11252459 0.13229997 0.15721802
000230 06 02 09 be c3 34 9c 3d 62 b7 72 3d 1b 12 43 be
       -0.13379678 0.07627251 0.05925692 -0.19049875
000240 c9 30 22 be 2d df a1 3d cd 95 6e 3e 0d f0 c9 3d
       -0.15838923 0.079038955 0.23299332 0.09860239
000250 50 81 ea 3d e4 21 f7 3d 09 b7 99 bd 1e 99 08 bc
       0.11450446 0.12067011 -0.07505614 -0.008337287
000260 8d a6 90 3c 82 1d 51 3b 83 be 86 3e 6d 7c 8e bd
       0.017657543 0.0031908457 0.26317224 -0.06957326
000270 3e 35 f3 bd c6 c9 0c bc bd c2 79 bd 4c 80 e7 bd
       -0.118753895 -0.008593028 -0.060976733 -0.113037676
000280 31 d8 7e bd f2 a9 fc bd 24 20 67 bd 66 4c c9 3c
       -0.062217895 -0.12337102 -0.056427136 0.024572562
000290 be 1e 40 3e 0a 41 96 be 82 e9 9e 3b b9 bc 52 3e
       0.18761727 -0.29346496 0.0048496136 0.20579804
0002a0 9d dd b6 be 9e 09 06 3e 22 7c 2a 3d b0 16 c1 3d
       -0.35715953 0.13089606 0.04162229 0.094281554
0002b0 74 63 13 be 15 96 46 be f5 4c e1 3c 36 3a 35 bd
       -0.14393407 -0.19393189 0.027502516 -0.044244967
0002c0 00 51 3f be 0c 78 06 be a7 cb 04 be cd 0c 5e bd
       -0.18683243 -0.13131732 -0.12968312 -0.054211427
0002d0 b0 9f 6a 3e 95 54 04 3e 2e e1 aa bd 61 8b 6a 3d
       0.22912478 0.1292289 -0.08343731 0.05726183
0002e0 7c 22 79 3b 55 67 b5 bd 17 98 9e be f0 42 b4 bd
       0.003801494 -0.088576 -0.3097541 -0.0880183
0002f0 3e 21 23 3d 7d 53 ab 3d df d0 09 bd e0 a5 17 be
       0.039826624 0.083655335 -0.03364646 -0.1480937
000300 c6 c5 a7 bd 3e 2b 2b 3c a3 1d 6e bd e1 d8 42 bc
       -0.08192019 0.010447321 -0.058133733 -0.011892528
000310 a5 60 9a 3d 7f 51 78 bd c7 de c0 3d db 5e 9c 3d
       0.07537965 -0.060624596 0.094174914 0.0763528
000320 50 76 78 bd 7d d8 ad bd 5d 8c 74 bd b9 4a f6 bc
       -0.060659707 -0.084885575 -0.059704173 -0.030064927
000330 de 3e ef 3d 39 33 fc 3d 13 8c 3f 3e 3d ca c3 3d
       0.11681913 0.123144574 0.18705778 0.09560058
000340 35 1a ad bd 17 fd ce bd 13 61 10 3e 63 37 bb 3d
       -0.08452264 -0.10106867 0.14099531 0.091414236
000350 fc 0a 3d be f0 18 65 3d dc d2 00 bd 6b 1a d0 bd
       -0.18461221 0.055931985 -0.03145109 -0.10161289
000360 eb 30 d8 bc 86 40 c8 3c b4 9a 6a 3e a7 18 27 bb
       -0.026390513 0.02444483 0.22910577 -0.0025496872
000370 0b 01 0c be a7 bb 94 3d bb 6f 62 be 1b de 91 bd
       -0.13672273 0.07262354 -0.22112934 -0.071224414
000380 72 41 d4 3d ac f8 36 bd ab 70 54 bd da 96 1b ba
       0.10364045 -0.044670746 -0.05186526 -0.00059352594
000390 a3 bf c0 bd b8 b8 8f 3d 06 a9 20 3d b0 9d 97 bc
       -0.09411552 0.07017654 0.039223693 -0.018507808
0003a0 cd 92 b4 3d 67 ff 78 3d 57 50 b4 39 f6 d3 23 bd
       0.088170625 0.060790446 0.00034392133 -0.039997064
0003b0 37 31 ad bd 6b 9e 1c 3e c7 5e 36 bd 3c c8 ac bd
       -0.084566526 0.15294807 -0.04452398 -0.08436629
0003c0 13 5e a7 3d 2d b8 c4 3d a1 1d 6d 3d f5 f3 4d be
       0.0817224 0.09605441 0.057889584 -0.20112593
0003d0 e6 47 e3 3d 50 dd 3d 3d cb 68 63 be 81 3b 52 3d
       0.11097698 0.04635364 -0.22207944 0.05132628
0003e0 7a 5f d9 3d 10 71 f7 bd 05 fc d8 3d 38 5e 59 3d
       0.10613914 -0.12082112 0.10594944 0.05306837
0003f0 69 55 14 3e 2b 48 9e 3d 12 44 af bd d9 cb e2 3d
       0.14485706 0.07728609 -0.08557905 0.11074037

norm3.weight f4 [24]
000000 3a d4 91 3f ef f2 76 3f 7f 8b 82 3f d0 18 87 3f
       1.1392891 0.9646444 1.0198821 1.0554447
000010 ea e7 8a 3f 45 b0 74 3f 21 15 87 3f 29 fb 70 3f
       1.0852025 0.95581466 1.0553323 0.9413324
000020 b1 73 40 3f 67 5c 77 3f 57 b0 85 3f da d2 73 3f
       0.7517653 0.9662537 1.044444 0.9524361
000030 ff 7a 81 3f 48 fd 6d 3f 31 df 85 3f f8 9a 68 3f
       1.011566 0.929646 1.0458738 0.90861464
000040 53 39 7f 3f 37 55 67 3f 24 7b 81 3f e3 cb 8c 3f
       0.99696845 0.903644 1.0115705 1.0999721
000050 b1 b9 8f 3f 8f 0e 96 3f b0 7e 8b 3f 37 93 6e 3f
       1.1228544 1.1723193 1.0898037 0.9319338

norm3.bias f4 [24]
000000 53 0a 65 3d 0f 6c 4f bd ad bb a6 bc e5 1b 52 bd
       0.05591805 -0.050640162 -0.020353163 -0.051296134
000010 75 a0 fc 3d 54 a9 79 bd a0 39 26 be f7 39 4b 3b
       0.12335292 -0.0609525 -0.1623292 0.0031009892
000020 64 a4 a1 bd 64 13 25 bd a9 9c db bd 07 8c 1b ba
       -0.07892683 -0.040301695 -0.1072324 -0.00059336465
000030 51 cb 7f bd 5e d1 0d be a4 46 e8 bd 28 a1 ff bd
       -0.062449757 -0.13849398 -0.11341599 -0.1248191
000040 98 dd a9 3c f1 05 9c bd 0d 11 b8 bd 53 68 47 bd
       0.020735547 -0.07618321 -0.08987627 -0.048683476
000050 00 fa f4 bc 15 a8 97 3b 42 2d 5b 3d 6d eb 92 3c
       -0.029904366 0.0046281912 0.053509958 0.017934525

norm3.running_mean f4 [24]
000000 b4 1d 4d 3f 9d fa 2e 3f 98 36 df 3e a5 cf b3 3f
       0.8012345 0.68351156 0.4359634 1.4047743
000010 b4 a9 c9 3e 17 70 00 3f cc 23 00 3f 10 c6 33 3f
       0.39387286 0.50171036 0.5005462 0.70224094
000020 82 23 5a 3e c5 c8 27 40 9d 62 90 3e be ca 2f 3f
       0.21302608 2.621629 0.28200236 0.68668735
000030 95 4e 29 40 78 e5 a9 3e 11 4e 2d 40 c2 c6 83 3e
       2.6454213 0.33182883 2.7078898 0.25737578
000040 34 63 32 3f 7c 1c 0f 3f 1d 0e e7 3e 5b 3a f3 3e
       0.6968262 0.5590284 0.45127955 0.4750546
000050 ff 8f 2a 3f 83 3d 09 3e 48 02 72 3e d9 de 96 3f
       0.6662597 0.13402371 0.23633683 1.1786758

norm3.running_var f4 [24]
000000 c1 12 d7 3f d4 eb 85 3f ce b6 52 3f 0e ee ed 3f
       1.6802598 1.0462594 0.8231019 1.8588274
000010 46 30 43 3f 66 db 83 3f 7e 69 76 3f 42 48 9f 3f
       0.76245534 1.030133 0.9625472 1.2443926
000020 fd 7c 82 3e 50 c3 55 40 33 a2 f8 3e 9e 12 9f 3f
       0.25485983 3.340046 0.48561248 1.2427557
000030 31 74 84 40 b8 8a f7 3e 97 02 43 40 7f 31 a1 3e
       4.1391835 0.48348022 3.047033 0.31483075
000040 1d b4 98 3f ff f0 7d 3f d1 3a 40 3f 67 ae 7b 3f
       1.1929966 0.99195856 0.75089747 0.9831299
000050 ea e7 b7 3f e7 db 35 3e 27 41 dc 3e 48 9d f5 3f
       1.436765 0.17759667 0.43018457 1.9188623

conv4.weight f4 [16, 24, 3, 3]
000000 b0 1b 75 3d bb 71 05 be db 13 2c bd bd 07 3d 3d
       0.059840858 -0.13031666 -0.042011123 0.046149958
000010 c8 6f 20 be ad ee 15 be 60 18 30 3d a5 ab 0e 3c
       -0.15667641 -0.14641829 0.042991996 0.008707915
000020 03 10 e9 bd e6 eb 4e 3d 43 e9 f4 bc b3 f1 3e bc
       -0.11380007 0.05051794 -0.029896384 -0.011654305
000030 c5 58 c1 bc 75 ad ab 3c 8e 00 55 3c 75 dc bf bd
       -0.023601899 0.020956734 0.0130006205 -0.09368221
000040 bf 84 b2 bd be 37 93 bc 1e 93 93 bd 77 50 06 bd
       -0.087167256 -0.017970916 -0.07205795 -0.03279158
000050 86 97 9a bd 5e fd 13 bd c1 da 80 3c 3c 5b 8f bc
       -0.07548432 -0.0361303 0.01572931 -0.017499559
000060 bd a3 46 3b e6 ce 6c bd ab f5 cc bd a7 98 b0 bd
       0.0030309998 -0.0578145 -0.10007795 -0.08622866
000070 87 b2 aa bd 2d cb 0b be 41 19 fd bd 33 5d 26 be
       -0.08334833 -0.13651724 -0.123583324 -0.1624649
000080 e5 a7 2b be e7 9f 2c be 49 9f 44 bd ef ed db ba
       -0.16763265 -0.16857873 -0.04800347 -0.0016779284
000090 83 d5 5a be ef 1b 74 3d 5e 0d 5e 3d 9b ff 07 be
       -0.21370511 0.059596952 0.054211967 -0.132811
0000a0 f6 11 c9 bd ef f8 92 bd 8f 0d 8c bd 9f 48 b6 bd
       -0.09817879 -0.071763866 -0.068385236 -0.0890057
0000b0 59 b1 29 be 55 aa de bc 2c a1 66 bc 47 99 76 3d
       -0.16571559 -0.02718083 -0.014076512 0.06020477
0000c0 1a f2 28 3c a3 29 34 3c 90 b6 55 3d d6 12 85 bc
       0.010311628 0.010996255 0.05217606 -0.016244333
0000d0 16 c9 b3 3c f3 aa 14 3d a2 7a d7 3d 4b 46 f0 bd
       0.021946471 0.036295842 0.10521437 -0.11732157
0000e0 15 de 94 bd 0b 55 c6 bd 9e 5d 0a bd c8 62 e0 bd
       -0.07268921 -0.096841894 -0.033780687 -0.10956341
0000f0 9d 2c a5 3d 0d dd c9 3d 38 3f 04 3e 0d 16 b6 3d
       0.0806515 0.09856615 0.12914741 0.088909246
000100 bf ee d0 3d df e6 8e bb b2 ce 9c 3d e6 97 c4 bc
       0.10201787 -0.004361018 0.076566115 -0.023998212
000110 40 3f e8 bd a2 93 5d 3d 69 87 40 bc 40 58 b1 bd
       -0.11340189 0.05409587 -0.011751034 -0.086594105
000120 7b 7e c6 3d 7f 06 bf 3d 1e 4d 47 bd dd 40 15 3e
       0.09692093 0.09327411 -0.04865753 0.14575525
000130 62 0d 39 bd 32 c4 93 bc 30 75 a5 bd a4 50 93 3d
       -0.04517878 -0.01803789 -0.08078992 0.07193115
000140 4b 34 40 3d 92 8d bf bd 4f af 77 3c 3f 77 6c 3e
       0.04692487 -0.09353174 0.01511748 0.23092364
000150 cf 35 6d be 89 7f 7b 3d 34 96 2a 3e 05 d5 6f be
       -0.23165058 0.061400924 0.1665886 -0.23421104
000160 8e e6 9c bd fe bb 92 3d ce 06 13 3e de d3 a8 3d
       -0.07661162 0.07164763 0.14358065 0.082435355
000170 b1 d6 09 3d 13 ba 1b 3e 49 79 43 3d 6e 06 f5 bc
       0.03365201 0.152077 0.04772309 -0.029910292
000180 0b 47 14 3e b7 db e6 3d dc 29 f0 3d 46 91 11 3e
       0.14480226 0.11272376 0.11726734 0.14215574
000190 92 26 99 bd 5e 96 cd bd 1c a4 a1 3d 13 5d f1 bd
       -0.0747806 -0.10038446 0.078926295 -0.117853306
0001a0 3e 57 3a be 27 82 5c bd 49 06 bd 3b 71 e9 fe 3a
       -0.18197343 -0.05383506 0.0057685715 0.0019448233
0001b0 47 e5 21 be 2a 67 5a bd 15 e1 43 3d 2c f9 09 be
       -0.15810119 -0.05332104 0.047822077 -0.13473958
0001c0 3a 98 cb bd bb cf 65 3d 8a 6b e2 bc 51 c0 a2 bd
       -0.09941144 0.05610631 -0.02763917 -0.07946838
0001d0 8b b7 fb 3d f7 aa 22 3d de d1 bc 3d 92 ad 2b be
       0.122908674 0.039713826 0.092197165 -0.1676543
0001e0 15 ef 8d bd 58 04 c6 3d 7e 79 ba 3d b5 dc d1 3c
       -0.06930367 0.09668797 0.09105204 0.025617937
0001f0 1b 92 fb 3c a8 85 1a 3d 7f dd 89 3c 5b cc 25 be
       0.030709317 0.03772512 0.01682925 -0.16191237
000200 b1 05 8d be 56 f2 43 3c 6e 86 9f bd 2c 40 66 be
       -0.27543405 0.011959633 -0.07789312 -0.22485417
000210 40 e6 1d 3e 7b 23 e4 3d a1 76 c2 bd 0b 87 90 bd
       0.15419865 0.1113958 -0.09495283 -0.070570074
000220 98 ae 04 be 07 e2 af bb a1 15 2a 3d c2 da f8 bb
       -0.12957227 -0.0053675207 0.041524533 -0.0075944373
000230 3f a2 10 3e dc 02 9e 3d d1 6b 49 bc 1b e7 cc bd
       0.14124392 0.07715389 -0.012293772 -0.10005017
000240 50 44 1e 3e 19 7e 58 bd 1c 28 28 3e 4e df 0d 3e
       0.15455747 -0.05285463 0.1642155 0.13854715
000250 65 8e 11 3e 15 0b 21 3d 6c f2 c7 3d 16 ea 04 3e
       0.14214475 0.03931721 0.09763035 0.12979922
000260 91 b1 10 3e a7 65 c4 bd e5 d8 f2 3b 46 9e ae 3c
       0.14130236 -0.09589701 0.0074111097 0.021315705
000270 af 99 37 be 24 11 63 be 26 2d e8 bc f4 7b d7 bd
       -0.1792972 -0.22174507 -0.028341841 -0.10521689
000280 d3 b5 8a be e7 ba 50 be ac 3f a6 3c 47 6c 9e 3c
       -0.27091846 -0.20383798 0.020294033 0.01933874
000290 df bb db bd 48 40 ed 3d 9b d3 a3 3c 06 f4 16 bd
       -0.10729193 0.11584526 0.019998362 -0.036853813
0002a0 c4 da 8b 3d cc f3 95 3d 84 ed 39 3e 37 29 b7 3d
       0.068288356 0.07321891 0.18157011 0.08943408
0002b0 6c 6e c9 3d 80 ca 52 3c fb b5 35 3e 82 23 b1 3d
       0.098355144 0.012865663 0.17745201 0.08649351
0002c0 15 eb 37 3e 39 fe d2 3d bb 1a ef 3d f0 44 57 3d
       0.1796077 0.103023954 0.1167502 0.05255598
0002d0 d3 1e 19 3e 1f 37 cd 3d 7b 6a 7b 3b 48 1f 00 3e
       0.14953165 0.10020279 0.0038363028 0.12511933
0002e0 1c 16 f2 bc 8c 29 91 3c 5f 53 28 3d 07 69 19 3e
       -0.029551558 0.017720006 0.041095134 0.14981471
0002f0 0f 14 f9 3d 87 5b 22 bd 74 9d 17 bd 03 b6 21 3e
       0.12162029 -0.03963807 -0.037015393 0.15792088
000300 e2 8f 7c 3d f1 7e 31 3d 13 0a cc 3d af c3 53 3e
       0.061660655 0.04333395 0.09962859 0.20680116
000310 7a fc 58 3d 31 e5 42 3d 47 6c c8 3a cb c4 28 3d
       0.052975155 0.047581855 0.0015291058 0.0412033
000320 66 26 6a 3c 32 bd d3 3b 9c bd ee bc d6 24 1e 3e
       0.014291381 0.006461763 -0.029143147 0.1544374
000330 fd 81 29 3d 35 df 9f bd a3 d8 a9 bd d4 99 52 be
       0.041383732 -0.07806245 -0.08293273 -0.20566493
000340 24 1a 13 be 01 7b bd bc 30 21 66 be a3 e9 fb bd
       -0.1436544 -0.023129942 -0.22473598 -0.12300422
000350 de 2e 6f 3d 03 1d 84 bd 2e 03 03 be b7 a0 69 bd
       0.058394305 -0.06450846 -0.12794182 -0.057038035
000360 4f 49 73 bc f6 51 35 3d be 45 2d 3d 1b 62 23 bd
       -0.014849021 0.044267617 0.04230284 -0.039888483
000370 7a 88 58 bd 2d 02 42 3d 09 be 55 be 22 a9 ec bd
       -0.05286453 0.047365356 -0.20873274 -0.11555697
000380 3d 6b 9e bd ad c3 f4 3d b2 5c 01 be 3c c5 53 bd
       -0.07735298 0.11951385 -0.12633017 -0.05170177
000390 79 bc 2c bd 41 64 c2 3d fa 43 34 3e 8c 14 a4 bd
       -0.04217193 0.09491778 0.17604056 -0.080117315
0003a0 54 a4 bc 3c e4 97 30 3e 90 61 83 bd 8f 11 a1 3a
       0.023027577 0.17245442 -0.06415093 0.0012288558
0003b0 cc 01 63 3d b0 dd e2 bd 0a 8b c3 bd 78 4b 2f 3e
       0.055421636 -0.1107744 -0.09548004 0.17118633
0003c0 9f c5 36 be 95 74 28 bb 6e e3 26 3d a4 45 5a bd
       -0.17848824 -0.0025704254 0.040744238 -0.05328907
0003d0 7f 28 10 3e 95 3f 78 bc 34 74 9d bd 18 b2 27 3e
       0.14077948 -0.015151878 -0.076881796 0.16376531
0003e0 ee f4 6f 3d 87 61 69 bd 4d af a4 bc 38 a7 81 3c
       0.058583193 -0.056977775 -0.020103121 0.015826806
0003f0 2a 34 ed bd f3 ca 22 3d 90 a6 bd 3d ce ad 6f be
       -0.11582215 0.03974433 0.09260285 -0.23406145

norm4.weight f4 [16]
000000 f6 c7 73 3f 22 fe 6f 3f 82 2c 82 3f 98 a8 6d 3f
       0.9522699 0.9374715 1.0169833 0.9283538
000010 a2 69 86 3f cc b0 82 3f 9a 62 71 3f 7d f4 86 3f
       1.0500987 1.0210204 0.9429108 1.0543362
000020 f0 0b 6f 3f 69 81 94 3f fc b4 8f 3f 76 74 80 3f
       0.9337759 1.1601993 1.1227107 1.0035541
000030 88 d5 84 3f 66 61 73 3f 6d 19 88 3f de af 77 3f
       1.0377665 0.95070493 1.0632759 0.9675273

norm4.bias f4 [16]
000000 e8 85 8a 3d 8a e9 a3 bc 24 a4 6c be de 3d 27 3e
       0.06763822 -0.020008821 -0.2310949 0.16332194
000010 ed 95 58 3e 1a 89 c3 bd e2 c5 cc 3c 08 d9 4b bd
       0.21150942 -0.095476344 0.024996702 -0.049767524
000020 51 bc e7 3d 89 92 6a 3d 6d cd d6 bd 68 6b 8d bc
       0.113152154 0.057268653 -0.104884006 -0.01726313
000030 e8 80 8f be ff 00 22 3c a2 4d bb 3d ff 86 4f 3d
       -0.28028035 0.009887933 0.09145667 0.05066585

norm4.running_mean f4 [16]
000000 5f 5d 53 3f 03 52 3d 3f 9b 6e 70 3f cb b0 59 3f
       0.8256435 0.73953265 0.9391877 0.8503539
000010 62 07 91 3f 3b 49 5c 3f be 64 6e 3f 06 86 7b 3f
       1.1330378 0.8604924 0.9312247 0.9825138
000020 ef 08 4a 3f 21 a6 9d 3f 30 a5 87 3f 76 e9 9a 3f
       0.7891988 1.2316324 1.0597286 1.2102497
000030 27 9c 8b 3f 6a bd 93 3f 7a 62 41 3f a0 95 67 3f
       1.0907029 1.154218 0.7554089 0.90462685

norm4.running_var f4 [16]
000000 e0 e8 ba 3f ec 26 de 3f b1 7e 01 40 c9 32 bc 3f
       1.4602318 1.7355628 2.0233576 1.4702998
000010 66 b9 f3 3f 90 3b 00 40 a7 e1 d3 3f 65 6b f1 3f
       1.9040954 2.0036354 1.6553239 1.8860899
000020 a3 0a c9 3f 0d 1b 20 40 16 6b 0e 40 a2 31 1f 40
       1.5706371 2.501651 2.225286 2.4874043
000030 6c 85 1b 40 f0 04 1f 40 ba c0 07 40 3a d6 be 3f
       2.4300184 2.4846764 2.121138 1.4909127

conv5.weight f4 [32, 16, 3, 3]
000000 c6 22 67 3d 56 d5 03 3e bf 1b c5 3d 7d 1d 63 bd
       0.056429647 0.1287435 0.09624433 -0.055448044
000010 94 47 18 3d 7d 61 2a 3e 5d 1c e3 bc f6 45 05 be
       0.037177637 0.16638751 -0.027723486 -0.13014969
000020 36 59 5c bc f3 f5 f8 bd 58 97 75 bd 55 8b 2c be
       -0.013449004 -0.12156286 -0.059958786 -0.16850026
000030 70 96 b8 3d c4 88 62 bd 58 4a 38 3d f5 c4 b5 3d
       0.09013069 -0.05530621 0.044992775 0.08875457
000040 fd 41 f7 39 83 ef b5 bd 45 1a 53 3b 6a 98 c2 bd
       0.00047160676 -0.08883574 0.0032211703 -0.09501727
000050 65 b0 9c bd 00 b1 03 3c 5c 35 68 bd ef 87 bf bd
       -0.07650832 0.008037806 -0.056691512 -0.09352099
000060 16 49 0c 3e e3 6d f4 3d 61 2c 4d ba 19 39 37 3e
       0.13699755 0.11935022 -0.00078267424 0.17892875
000070 d0 c2 f8 3d 9b 91 2f 3e 57 5d 58 bd 1e b0 91 3d
       0.121465325 0.17145388 -0.05282339 0.0711367
000080 2f 4b 70 3e 5d 94 a1 bd c2 57 8d bd 27 96 23 bd
       0.2346618 -0.07889626 -0.06901504 -0.03993812
000090 4d d5 ba 3d f1 ac 18 3e 02 f9 3a 3e a1 fe 2c be
       0.09122715 0.14909722 0.18259051 -0.16894008
0000a0 7b 6a 1e be 18 dd 6f bc 57 71 a5 3b 04 c6 56 be
       -0.15470307 -0.014640115 0.0050489116 -0.20973974
0000b0 f8 26 c2 bd e8 05 06 3c 61 33 90 3c 42 3a 83 bd
       -0.09480089 0.008180119 0.017602624 -0.06407596
0000c0 58 a3 7b 3e 45 e6 c8 3c 67 e1 43 3c 00 b2 0f 3e
       0.2457403 0.024523864 0.011955596 0.14032745
0000d0 76 dc 7f 3c 24 2b 9d 3d c9 aa c7 bd dc e6 ab bc
       0.015616527 0.07674244 -0.097493716 -0.020984106
0000e0 4f db c5 3d 06 82 49 3c 1b 49 a6 3c 99 c5 b9 3d
       0.096609704 0.012299066 0.020298531 0.09070892
0000f0 4a d1 bf 3c e4 6f 89 bd a6 15 bf 3d 66 b5 9b bd
       0.023415226 -0.067107946 0.09330301 -0.076029584
000100 50 fb d9 3d a5 15 28 bc e2 aa 28 bb c2 70 3c bd
       0.10643637 -0.010259067 -0.002573662 -0.04600597
000110 12 3a 55 be 58 61 bb bd 2b ed 93 bd d8 34 0e be
       -0.20822933 -0.09149426 -0.072229706 -0.13887346
000120 f3 a8 02 3e 87 51 ed bd a9 ee ef bd 7e 9c cf 3d
       0.12759762 -0.11587816 -0.11715443 0.101372704
000130 37 d5 b6 ba 0a c5 87 bd 53 40 dd 3d 00 4f 02 3e
       -0.0013949041 -0.06629379 0.108032845 0.12725449
000140 1f 70 bf bd 80 e5 c1 bd 2b 0f bc bd 61 5a 6a be
       -0.09347557 -0.09467602 -0.091825806 -0.2288604
000150 ab 08 cb bb 74 31 30 be 79 48 25 be 01 ea 32 3d
       -0.0061961017 -0.17206365 -0.16140927 0.043680195
000160 45 6f 7a 3c f7 60 21 be 79 6d 90 3d 4b c6 61 3d
       0.015285318 -0.15759645 0.0705213 0.055120748
000170 7d b5 2e 3c ae f6 07 3d 78 52 b2 bd 66 30 ec b9
       0.010663387 0.033194236 -0.08707136 -0.00045049487
000180 8d 50 52 bd b1 e7 2e bc cd ae ee 3c b7 a4 d0 bd
       -0.05134635 -0.010675357 0.029136086 -0.10187667
000190 f2 3e 85 bd 81 69 9b bd 26 e6 11 bd 58 1c e8 bd
       -0.065061465 -0.07588483 -0.035619877 -0.11333531
0001a0 b8 ac 8f 3c 8a ee 1f 3e 02 8b bc bb 2f 4b d8 3d
       0.017538413 0.15618339 -0.0057538757 0.10561215
0001b0 15 8c d7 bd 69 55 50 bd fb e2 17 3d 67 08 39 bb
       -0.105247654 -0.050862703 0.0370817 -0.0028233768
0001c0 45 28 11 3e ca a6 34 bc 9f 3d 73 bd 17 fd 97 b8
       0.14175518 -0.011026094 -0.05938494 -7.247383e-05
0001d0 24 87 99 3c 7c e1 b5 bd 7f c9 4e be 15 ff 21 be
       0.018741198 -0.08880898 -0.20194052 -0.15819962
0001e0 76 86 ce 3c 4b 53 11 be ca 43 1c be 52 39 77 3c
       0.0252106 -0.1419193 -0.15260234 0.01508935
0001f0 28 f7 0d bc ab da ed bc 7b 1e c0 3d 27 7c 03 3d
       -0.008664884 -0.029034933 0.09380814 0.032100823
000200 16 1e a2 3d 8f ae 91 bd b9 f8 dd 3c ee af 57 3d
       0.07915895 -0.071133725 0.02709614 0.052658014
000210 29 9f c4 bd cd cb e7 bd a4 36 ca 3d 96 7c ae bd
       -0.0960067 -0.11318169 0.09873703 -0.08519857
000220 5b 35 f1 bc 67 0a c9 3d 64 02 17 bc 96 4e 82 bd
       -0.029444387 0.09816437 -0.009216879 -0.06362645
000230 c2 f1 d5 bb f0 40 65 3d f7 43 16 3c 5b 54 02 be
       -0.006529064 0.055970132 0.0091714775 -0.12727492
000240 9b 8d ab bd 29 15 cf bd fb 32 b5 bd 94 71 f8 bd
       -0.083766185 -0.10111458 -0.088476144 -0.12131038
000250 ab d8 3c 3c 1b a7 1c bd fe ea 1d be cf 28 b8 3b
       0.011526267 -0.0382453 -0.15421674 0.005620099
000260 bb 80 5c bd 2a 79 18 3e 60 33 e0 bd fb 41 67 bd
       -0.053833704 0.1488997 -0.10947299 -0.05645941
000270 a2 78 1b 3d cb 1c bd bd da b4 2c bd e3 d5 78 bc
       0.03795684 -0.092340074 -0.04216466 -0.015187713
000280 52 4a db 3b 58 89 e6 3d b1 cf 2e 3d 0a 27 c2 bc
       0.0066922093 0.11256665 0.04267854 -0.023700256
000290 a8 f1 d9 3c c3 c3 5e 3c 4d 8b ce bc 1b cc f3 3c
       0.026604488 0.013596478 -0.025212908 0.029760411
0002a0 23 f4 aa bd f9 8e 9f 3d 9d 91 39 3e f5 91 ea 3d
       -0.08347347 0.07790942 0.18121953 0.1145362
0002b0 c3 2c 2c 3e db 17 3d 3e a7 c3 36 3e 06 4a b1 3d
       0.1681395 0.18466131 0.17848073 0.08656697
0002c0 50 c2 7f bc 21 bd a4 3d 7d 05 81 bd f7 3b b2 3d
       -0.015610293 0.08043886 -0.06299875 0.08702844
0002d0 90 ea a2 bd c4 3c 15 bd ed 8c 69 be 5c 26 03 be
       -0.079548955 -0.036434904 -0.22807665 -0.12807602
0002e0 76 e5 1e be 78 15 4a be 6c 84 6a 3c c6 54 4d 3d
       -0.1551722 -0.19734752 0.014313798 0.050129674
0002f0 fb 6d 07 be fa 8c f9 bc 84 32 10 3d fc 00 56 bd
       -0.13225548 -0.03046273 0.035204425 -0.052247033
000300 74 1d bd bc ec 08 a7 bd cc fe 41 bd 53 f3 00 be
       -0.023085333 -0.081559986 -0.047362134 -0.12592821
000310 c2 4b 11 3d 92 9e b6 bd 45 f6 84 3c 0e ac b3 bd
       0.03547264 -0.08916964 0.016230712 -0.08773051
000320 4c 33 05 be b8 33 26 3b a4 3e 1e bd 8a e0 1c bd
       -0.1300785 0.0025360417 -0.038633958 -0.038300075
000330 90 19 cf bc 69 0a e1 bc 4d 65 98 3c 37 85 06 be
       -0.025280744 -0.027470784 0.018602991 -0.13136755
000340 55 4f 0e 3e 43 2f 47 3e 3c a0 e1 3c 83 07 b8 3d
       0.1389745 0.19451623 0.027542226 0.08985808
000350 d6 4f 1a 3d 0b 3c d2 bc f3 dd 1d 3b 17 11 3f bd
       0.037673794 -0.025663396 0.002408859 -0.046647158
000360 27 3e d6 3c 52 bc f0 bd c5 6e dc bd b0 b6 7f bd
       0.026152683 -0.11754669 -0.10763315 -0.062430084
000370 ff 41 93 bd 1b da 77 3d 46 15 79 bd 32 1b d2 bd
       -0.07190322 0.060510736 -0.060811304 -0.10259093
000380 6c 2e ea bd 2f cb 04 be 61 f6 21 be ee 1d b6 3c
       -0.114346355 -0.12968133 -0.15816642 0.022231068
000390 6f 61 f6 bd a5 f3 89 bd 02 81 db bd 49 ad 14 3e
       -0.12030303 -0.06735925 -0.10717966 0.14519228
0003a0 1b 01 23 3e 29 d0 06 3d 4e e9 cd 3b 50 15 97 bd
       0.1591839 0.03291336 0.0062839156 -0.07377112
0003b0 3c a6 c0 bc 93 d9 3d 3e 7f cd 3d bd 4e d0 03 be
       -0.023516767 0.18540029 -0.046338554 -0.1287243
0003c0 ee ff ee 3d a4 38 80 bc 9b 51 d7 3c 94 95 09 be
       0.116699085 -0.015652008 0.02628403 -0.13435966
0003d0 dd 6e 18 bc 8a 09 00 3e 68 f9 f0 bd 25 3a c1 bd
       -0.009303776 0.12503639 -0.117663205 -0.09434918
0003e0 4c c4 b4 bd c6 46 ec 3c af dd 5d 3d 68 89 74 bd
       -0.08826503 0.028842341 0.054166492 -0.059701353
0003f0 e2 b5 ab 3c 4b 3a 30 3d 26 68 0b 3e d0 08 ca bd
       0.020960752 0.043024343 0.13613948 -0.09864962

norm5.weight f4 [32]
000000 11 56 81 3f e8 4c 6d 3f 82 a2 78 3f 84 af 6e 3f
       1.010439 0.92695475 0.9712297 0.93236566
000010 0e 18 83 3f b0 fe 7c 3f 02 73 78 3f 18 c2 7b 3f
       1.0241716 0.9882612 0.9705049 0.9834304
000020 c0 b6 83 3f 13 be 83 3f 49 5e 83 3f 87 26 83 3f
       1.0290146 1.0292381 1.0263149 1.0246133
000030 f7 f2 7e 3f 09 f4 76 3f a6 f1 81 3f 1c 6c 66 3f
       0.99589485 0.9646612 1.015187 0.9000871
000040 e2 a0 71 3f 4d 09 7d 3f 03 fe 74 3f 06 58 7b 3f
       0.9438611 0.98842317 0.9570009 0.9818119
000050 6e 86 85 3f f5 b9 7c 3f d0 3b 8b 3f 2b c8 7f 3f
       1.043165 0.9872125 1.0877628 0.9991481
000060 42 ce 7a 3f 6e ac 88 3f 31 18 84 3f 07 49 7c 3f
       0.97970974 1.0677621 1.0319883 0.9854893
000070 d9 9b 82 3f 26 b7 74 3f b8 83 91 3f d4 cf 71 3f
       1.0203811 0.9559196 1.1368322 0.94457746

norm5.bias f4 [32]
000000 1f 04 97 bc 37 d7 38 be c3 9e ef bc ac 88 ce bd
       -0.018434582 -0.18050848 -0.029250508 -0.10084662
000010 8a 10 d0 bd 45 fb ae 3c 87 59 ee bc c8 11 84 be
       -0.101594046 0.021360049 -0.029095424 -0.25794816
000020 ff e1 16 be 3d e5 0b be e2 01 16 be 9c b4 8a be
       -0.14734648 -0.13661666 -0.14649156 -0.2709092
000030 60 92 f5 3c a6 6b 0d be 0b 1b 20 3e fd 15 b1 3d
       0.029977024 -0.13810596 0.15635316 0.08646772
000040 d0 5a 01 be 4d 1e fc ba 09 3f 10 3e 35 fb 8c bd
       -0.12632298 -0.0019235105 0.14086546 -0.068838514
000050 ba 52 26 be b4 de ea 3c 7b c6 36 3e 73 5f 5a be
       -0.16242495 0.028670646 0.17849152 -0.21325473
000060 3c cc 38 3e 3a 1a a3 3d 78 a6 5b 3d 9b fd 03 bd
       0.18046659 0.07963987 0.053625554 -0.03222428
000070 38 34 0f be 11 bf 46 be af 6d 76 bd 3d 95 ed bd
       -0.13984764 -0.19408824 -0.060163196 -0.116007306

norm5.running_mean f4 [32]
000000 0e c2 2e 3f 0e fc 14 3f 3a 36 ee 3e 02 78 57 3f
       0.68264854 0.58197105 0.46525747 0.8416749
000010 5d a2 21 3f e2 4c e6 3e 54 42 e8 3e 80 43 5d 3f
       0.6313837 0.44980532 0.45363104 0.8643112
000020 44 ca 0e 3f f1 82 1b 3f c7 a8 4f 3f 93 4c 31 3f
       0.5577738 0.60746676 0.8111691 0.6925747
000030 ae 44 2f 3f f2 33 23 3f 1c d8 2c 3f a7 f0 02 3f
       0.6846417 0.6375114 0.67517257 0.51148456
000040 af 7f 24 3f fc fa 35 3f e1 b7 c0 3e b0 4c d9 3e
       0.6425733 0.71086097 0.37640288 0.4244132
000050 e3 79 24 3f 8c 44 23 3f df 2e 44 3f a4 27 51 3f
       0.64248484 0.6377647 0.7663402 0.8170111
000060 6a 1e 21 3f 1e 27 59 3f 0e 1d 2e 3f 5b 89 04 3f
       0.62937033 0.84825313 0.68013084 0.5177209
000070 59 72 1b 3f 6d 33 31 3f c6 fb e4 3e 36 ae 01 3f
       0.60721356 0.69219095 0.44723338 0.5065645

norm5.running_var f4 [32]
000000 f7 59 8c 3f c7 9e 88 3f 24 a0 26 3f ed 3a cc 3f
       1.0964955 1.0673455 0.65088105 1.5955483
000010 40 c3 41 3f a5 82 08 3f 79 50 11 3f 6e 8c c8 3f
       0.7568855 0.5332435 0.56763417 1.5667856
000020 b4 32 6a 3f 80 fe 56 3f 29 c2 cf 3f ab 1d a5 3f
       0.91483617 0.83982086 1.6231128 1.2899679
000030 e5 58 87 3f a0 38 64 3f cb dd 68 3f 6c 95 21 3f
       1.0574003 0.891489 0.9096343 0.63118625
000040 d6 2e 65 3f cf 27 7a 3f 59 55 18 3f 77 d0 24 3f
       0.8952459 0.97716993 0.5950523 0.6438059
000050 a2 0b 98 3f 8e f3 8d 3f 08 6e 91 3f 44 cf 64 3f
       1.187855 1.1089952 1.1361704 0.8937876
000060 ae 29 4c 3f 70 d3 b6 3f 14 4d 68 3f 68 95 39 3f
       0.797511 1.4283276 0.9074261 0.724936
000070 6d d7 7c 3f 91 0b 62 3f c4 28 49 3f c9 39 1a 3f
       0.98766214 0.882989 0.7857783 0.60244423
